大三上学期/人工智能原理/实验/cifar10/cifar10_origin.pth (torch_old, 249664 bytes, 10 tensors)

conv1.weight f4 [6, 3, 5, 5]
00000000: 8faf 27bb 5d5c 27be b318 873d 1526 ee3a
00000010: 8ac4 aa3c a735 183e e95e 3cbe 915b abbe
00000020: 5877 213e ea6e 1f3e 8760 87bd 4077 2e3d
00000030: 0167 ebbd caa5 93be 83ce be3e bdfb dcbe
00000040: ac34 003f 47be 473f 5bef 44bf 17d8 b8bd
00000050: f164 04bd 6c72 243f 4e98 263f 232b 5bbf
00000060: 72c5 babd 8df9 193e cee8 f63c 59cf 553c
00000070: ebe8 5c3e bd4a b9bd eb7e 9b3e 85cf 0b3d
00000080: 4ffa 9cbe c79f 3c3e 9dd9 c03d b27c 85bb
00000090: ab4f b13e 5787 3cbd 496e dfbe e9c1 b43e
000000a0: fd2a c1be 9148 193f 623f 2c3f c645 71bf
000000b0: 8311 12bd 23e0 86be b8cb 0c3f 06ee 1d3f
000000c0: d26d 70bf 9919 59be 529e f6bd cfe3 e8bd
000000d0: 10c6 10bc 18fa 5e3e f095 18be 464c 9d3d
000000e0: 2b71 84bc fac6 7abe bcd9 9b3d 1000 053e
000000f0: 336c 683d 29f5 a13e 46a4 a0bb e297 d5be
00000100: a12a 8f3e 942d c9be d69d d53e c142 393f
00000110: 01a9 4dbf 3802 f13b 632d 60be f0a8 0d3f
00000120: f471 313f f057 53bf 32ea eabd f4c9 913d
00000130: 54f8 6a3c 2ea8 273d b35f 133e 09d1 0c3d
00000140: 4dd4 33bd 8b9c f8bd 8ec4 bdbd e9b2 99bd
00000150: 1236 2a3a b740 96be 7e6d 43be 24be 43be
00000160: efd4 18be 1980 1abd 8869 31be f386 69be
00000170: 0d79 9abd 24f4 d33d 7b54 0c3d cccf 2fbe
00000180: 3ab8 abbd 4b4e 7c3c d1e6 1b3d ac8e 763d
00000190: 6d70 04bb 61dd 7cbd 0e37 2abc 6b5c 2ebe
000001a0: 90ee 46be 72ff 96bd a988 643d bce8 ddbd
000001b0: 9a3c e73c bb32 1bbe 52b6 d23d 9cf9 ce3c
000001c0: 0fe7 39ba 468d d3bd 3ef0 9bbe 2e4e d0bc
000001d0: 1799 20bc e35f d53d 345b acbd 80b6 dbbd
000001e0: c2a0 d4bb 9139 21bd 9928 a5bb 3198 e2bc
000001f0: ea26 73be fa19 0a3e 8eb0 953e 553f 7bbb
00000200: afa2 01be 84d2 e6bd 41b1 c93e a9a7 dc3e
00000210: 7c4c 8f3e 0e86 14bd 913c 2abe 70cd cd3e
00000220: 2036 0b3f aa1d c33e 9276 723e 4a43 36be
00000230: aa19 c93e db01 f13e 940c 3b3e 000a 5a3d
00000240: 3d9e 2cbe 7c19 6f3e 38c0 a53e e30d 433d
00000250: 8eb9 ab3d 0ba2 55be 757a 0ebd 9a9e ad3e
00000260: d028 8c3e ece8 0dbe bfa8 94be 7867 cd3d
00000270: b0af c33e a781 9cbc ae01 03bf aaf5 dc3d
00000280: d6fd 8f3d 5107 5c3e 55a7 f8be ead6 f4be
00000290: f316 893e e5a9 75be fcfb 3cbe bac1 b7be
000002a0: 536a 15be 488b be3e 0d54 86be c32f c63d
000002b0: 551d 1dbe f6c8 9dbd 2713 a13e e3de 00be
000002c0: bca9 4dbd 9dcc 3ebc ab4d 92be 8367 6ebe
000002d0: 3ecc 5b3d c2ba 4f3e e822 28be 2197 f0be
000002e0: 2df1 643e 6d16 61bd 26a9 15bc 31e3 edbe
000002f0: e7f0 8bbe fd36 b43e 8d23 3dbe 516a fdbc
00000300: f5ff abbe 4e2a cebd 74df 983e 8bf5 72be
00000310: 6551 073e 4018 7cbe a5ae b03c ecd8 8b3e
00000320: c1d7 68be 28e6 483e c977 f63d cc06 34bd
00000330: 6063 3c3d da2d c8bb adc5 a23e 9271 4ebd
00000340: 3aa6 7cbe e559 7f3e c64f 8a3d 2745 323e
00000350: edd1 a7be 5f39 0cbe 271e 013f 0925 41be
00000360: 9bb3 703d 135b 98be 33f1 b93d baba c33e
00000370: f56d 92bd e06b 4b3e a3d4 38bd be51 3f3e
00000380: ebb6 a33e 7176 d63c 5e71 bf3e 07ef 1e3f
00000390: aa1c fa3e c918 b53e bb61 bdbe fdb2 acbe
000003a0: 31b4 2fbe 2c5c 3e3e 354a 503e 30b4 06bf
000003b0: 4a4c 4cbf d3bd 41bf 5650 0fbf 1754 0cbe
000003c0: abc9 8a3c deb1 bdbd 7e06 1abe 6e9f 06be
000003d0: 19d1 a4bd 7e34 ffbd bcba f0bc 58eb 193e
000003e0: 1a2d 003c be9b 95bb 1a50 083e 5252 f43e
000003f0: cf63 063f fdf9 ab3e 5fe7 2d3e 7e01 edbd
-0.0025586819 -0.16343828 0.06596508 0.0018169308 0.02084567 0.14864217 -0.1839558 -0.33468297
0.15768182 0.15569654 -0.06610208 0.042594194 -0.11494256 -0.28837425 0.3726693 -0.4316081
0.5008037 0.78024715 -0.7692773 -0.09025591 -0.032322828 0.64237094 0.6507615 -0.85612696
-0.09119691 0.15036602 0.030140307 0.013049924 0.21573226 -0.09047458 0.30370268 0.034133453
-0.3065972 0.18420325 0.094165064 -0.0040737027 0.34631094 -0.046027508 -0.43638828 0.35304192
-0.3772811 0.5987635 0.67284214 -0.9424709 -0.03566123 -0.26342878 0.5499835 0.6169132
-0.9391757 -0.21201171 -0.12041916 -0.11371576 -0.008836284 0.2177509 -0.14900947 0.07680564
-0.016167244 -0.24489966 0.07609889 0.12988305 0.05674381 0.31632355 -0.0049023954 -0.4171744
0.2796221 -0.39292586 0.41721982 0.72367483 -0.80336004 0.007355001 -0.21892314 0.55335903
0.69314504 -0.82556057 -0.114704505 0.071185976 0.014341433 0.040931873 0.14391975 0.03437904
-0.043903638 -0.12139233 -0.092660055 -0.075048275 0.00064930425 -0.29346249 -0.19084737 -0.19115502
-0.14924978 -0.03771982 -0.17325413 -0.22805385 -0.0754262 0.103493005 0.034260254 -0.17169112
-0.08384748 0.015399526 0.03806192 0.060194656 -0.0020208613 -0.06173456 -0.010389103 -0.17027442
-0.19426942 -0.07372941 0.05579439 -0.10835406 0.02822714 -0.15156071 0.10288681 0.025265507
-0.00070916204 -0.1032968 -0.30456728 -0.025427904 -0.009802124 0.104186796 -0.08415833 -0.107281685
-0.0064888904 -0.03936154 -0.00504024 -0.027660461 -0.23745313 0.13486472 0.29236263 -0.003833731
-0.12659715 -0.112706214 0.39393046 0.43096665 0.2798804 -0.036260657 -0.16624667 0.401958
0.54379463 0.3810857 0.23678043 -0.17799106 0.39277393 0.47071728 0.18266517 0.053232193
-0.16857238 0.23349565 0.32373214 0.047620665 0.08385001 -0.20862596 -0.034784753 0.33910066
0.27374887 -0.13858384 -0.29034993 0.10029501 0.38219976 -0.019104792 -0.5117444 0.10789044
0.07030837 0.21487166 -0.48565164 -0.47820216 0.2677532 -0.23990591 -0.184555 -0.3588999
-0.1459134 0.37215638 -0.26236 0.096770786 -0.1534322 -0.07704346 0.31459925 -0.12585025
-0.0502107 -0.011645463 -0.2857488 -0.23281674 0.053661577 0.20286086 -0.16419566 -0.46990302
0.22357626 -0.054953028 -0.009134566 -0.46462396 -0.2733223 0.35198203 -0.18470593 -0.030934485
-0.33593717 -0.10066663 0.2985798 -0.2372648 0.13214643 -0.24618626 0.021567652 0.27313936
-0.22738554 0.19619048 0.12034566 -0.043951795 0.04599321 -0.0061089816 0.3179144 -0.050401278
-0.24672785 0.24936636 0.06753497 0.17409192 -0.32777348 -0.1369376 0.50436634 -0.18861784
0.058765035 -0.29756984 0.09079208 0.382284 -0.07149879 0.1986537 -0.04512466 0.18683526
0.31975493 0.026179524 0.3739118 0.62083477 0.48849994 0.35370472 -0.36988625 -0.33730307
-0.17158581 0.18589848 0.20340808 -0.52618694 -0.7980391 -0.75680274 -0.5598196 -0.13703953
0.016941866 -0.09262441 -0.15041539 -0.13146755 -0.08047695 -0.12461184 -0.029385917 0.15031183
0.007823253 -0.004565685 0.13311806 0.47719055 0.52496046 0.33589163 0.16982792 -0.1157255

conv1.bias f4 [6]
00000000: 6de8 7fbe 7079 af3e adcf d1be eb3e 98be
00000010: 9c5c 68be 20bd 96be
-0.24991007 0.34272337 -0.40978757 -0.29735503 -0.22691578 -0.29441166

conv2.weight f4 [16, 6, 5, 5]
00000000: 1aa8 fbbe 05d3 6ebe 7d0e 953d 49bb 343e
00000010: 02f5 583e c9e5 eb3c e0bc a7be 5038 70bd
00000020: 1e14 9cbd 5693 f13d ce2e 4b3e 4eb9 9a3b
00000030: 7e4e 92be c70a 82be 46ee d03c 0314 063c
00000040: b9fd 593e 9d71 923d a474 fabd 3d2e 8cbd
00000050: 3c90 5dbd 3456 5fbd 186b de3d 8177 3d3d
00000060: f316 ea3a 21fc efbd cbd8 dabd 1b63 8fbd
00000070: 0da9 9ab9 a8e9 28be 06bb 193d 98b0 11be
00000080: 17e5 c73d 6bf8 223d fdef a4bd fd36 203e
00000090: 3e7e 82be 0074 44bd 08ce db3d ad1f 113d
000000a0: 6b3f 8e3e c642 8abd 97c2 82be 8d00 7dbe
000000b0: 5300 c53b 3176 d63e aec0 973e 4143 f83d
000000c0: 7a7c 0ebe 0348 80bd 9fc5 cf3d 3b96 d4bc
000000d0: cb82 bebd aade a9bd 5ff3 c43c 863e 983d
000000e0: e439 5c3d 66aa 8cbd 0f9e ccbd ed7f 8bbd
000000f0: 8667 f03d a8ff cf3d f466 bd3c 42cb a1bd
00000100: 3e35 68be d96b 863d 4f91 78bd e8ce 87bd
00000110: b7f1 c4bb d89f 83bd 2e8c 043e 16a3 89bb
00000120: b155 7ebb c0cf 17be f2de 77bd b172 a13d
00000130: ff68 033d ab3e 82bd 4fbe 44bd 2dd2 ea3d
00000140: a4fb 973e 4d3e 1e3e 7eb2 d5bd 3bc0 9dbd
00000150: 2536 a03c f26b b93e 1656 543e 871e 8bbd
00000160: 2c9a 83be f8c9 b4bd b8c6 913d 6e9d a93e
00000170: c1c0 3c3e e261 65be 09f8 93be e5ac a53d
00000180: f542 63bd b7fc 6b3d aacd 503e 86dc 473d
00000190: b7a5 993e 2faa 9fbd e7bf 5e3d 8d9b 083e
000001a0: a7b7 7c3e 9cc3 8d3d 38e3 5f3e d0ed b43c
000001b0: 5417 6ebd 662c 44bd f1b0 4cbe 107c 1a3e
000001c0: 1ddd 793e 0618 243d 5cc1 ffbc a018 ecbd
000001d0: b32a 5ebe 8bd0 1d3e e70a 863e 58c1 223e
000001e0: e3ed 7f3d e2f6 2fbe a6d3 0ebe 26a1 fc3d
000001f0: ed6b 823e f07a b6bc 834a 41bd 78fd 573c
00000200: 5884 6abc ed1f 41bc dccf 4cbe e17b 87be
00000210: c125 bebc 470c e93d 73e5 013e eb0d 79bd
00000220: edf6 36bd e16e 2cbe 2f0a d1bd 6891 793d
00000230: fb60 873c eab1 f5bd ffab b8be 93d1 85be
00000240: 9f71 7abd 6aed 5bbd cb7a e13d ecac 773d
00000250: d00a ccbc 98bd f2bd 373e 973d 1cd3 05bd
00000260: 2a65 87bd a014 123e 6628 433e 088b 62be
00000270: d58b ecbc 3d3e 273e 5d34 113e b5ba fe3d
00000280: 15e5 febd 8e16 d13d 801f 703e 3850 5f3e
00000290: 1589 aabd 194e 123e 3e01 863e 2450 52bd
000002a0: de07 3cbe 5548 d83d 975d 873e f979 26bc
000002b0: 1410 6cbe ab6d 063d 1c67 8e3d 4867 52be
000002c0: 5306 76be 6b79 77be 6e7e bcbd 02b1 6abc
000002d0: 6252 86bd f245 39be 745e ffbd 1e33 d63c
000002e0: 5f53 2ebd 8339 41bd ff23 b4bc f0ed c43d
000002f0: 4d30 4a3d 1515 3d3d 5375 003d 6870 c23d
00000300: a4c5 c93d f15e 9e3d 6e10 4b3d d3f4 813e
00000310: 0680 1f3e a568 27bc 79dd de3c 637d 7d3e
00000320: 744c 06be 08b9 f0bd 7fcc 90bc 1829 01be
00000330: 4cd4 ccbd 4d9b 23bd e0e3 16be b3b3 2bbe
00000340: 7a14 ecbd 8b55 5f3e cbaf 09be 7d00 7fbd
00000350: 8bc7 09be 5b74 383e d26e 8e3e f430 f4bd
00000360: 9c9d c2bc 1947 9c3d 3a68 073e 5320 913d
00000370: 9dde 17be 5b02 a63d b502 b23d 3d5a 043c
00000380: 7021 503d 613a 31be eb89 8fbe 419b 93be
00000390: 1fa3 69be 0113 04be 034b 6ebe 559a 6dbe
000003a0: 1365 62be a047 35be a31b bc3d 9296 aebe
000003b0: 1c9e 69be ec71 49be c64d 39bd b26f 243d
000003c0: 32f0 a6be 2ed9 24be 10a4 eebd 5eed 9c3c
000003d0: 8f2f 553d 2000 abbe f10d 2ebd 1dea 123e
000003e0: f834 a13d f638 0f3d d25f f23d 1691 073d
000003f0: beb1 d9bd 550a d4bc dbe7 6dbe d8e8 153e
-0.4915169 -0.23322685 0.07278154 0.17649569 0.21187213 0.028796094 -0.32761288 -0.058647454
-0.076210245 0.1179568 0.19842073 0.004721797 -0.2857551 -0.25398847 0.025504243 0.008183482
0.21288194 0.07150576 -0.12229279 -0.06844757 -0.05409263 -0.05452557 0.1086027 0.046256546
0.0017859623 -0.11718012 -0.10685881 -0.07001325 -0.00029499122 -0.16495383 0.037531875 -0.14227521
0.09760492 0.03978769 -0.08053587 0.15645976 -0.2548694 -0.04796219 0.10732657 0.0354306
0.2778276 -0.06751017 -0.25539085 -0.24707241 0.0060120015 0.41887048 0.2963919 0.12122203
-0.13914672 -0.06263735 0.10145115 -0.025950542 -0.093022905 -0.08294423 0.02404183 0.074338004
0.053766146 -0.068684384 -0.09991085 -0.06811509 0.117384955 0.101561844 0.023120381 -0.079000965
-0.2267656 0.06563539 -0.060685452 -0.06631261 -0.00601026 -0.06426972 0.129441 -0.0042003496
-0.00388084 -0.14825344 -0.06051535 0.07883204 0.032082554 -0.06359609 -0.048033055 0.11465869
0.29684174 0.15453453 -0.10434435 -0.07702681 0.019557068 0.36215168 0.20735964 -0.06792932
-0.2570356 -0.08827585 0.07117981 0.33127922 0.18432905 -0.2240062 -0.28900173 0.08089618
-0.055483777 0.057614055 0.20390955 0.048794292 0.30009243 -0.07796132 0.05438223 0.13340588
0.24679433 0.06922075 0.21864021 0.022086054 -0.058127716 -0.047893904 -0.19989373 0.15086389
0.24400754 0.040061973 -0.03122013 -0.11528134 -0.21695976 0.15411584 0.26180193 0.15894067
0.062482726 -0.17184022 -0.13947925 0.12335424 0.25472966 -0.022275418 -0.0471902 0.01318299
-0.01431378 -0.011787397 -0.20001167 -0.264617 -0.023211362 0.11379295 0.12685184 -0.06080429
-0.04466908 -0.16839172 -0.102070205 0.060929686 0.016525736 -0.11996825 -0.36068723 -0.26136455
-0.061143514 -0.053693213 0.11009749 0.060467646 -0.0249075 -0.118525684 0.073849134 -0.032672033
-0.066110924 0.1426568 0.1905838 -0.22123349 -0.02887527 0.16332336 0.14180131 0.12437955
-0.12446038 0.1020938 0.23449516 0.21807945 -0.083269276 0.14287604 0.26172823 -0.05134596
-0.18362376 0.10560671 0.2643859 -0.0101609165 -0.23053008 0.03281943 0.0695326 -0.20547211
-0.2402585 -0.24167411 -0.09203802 -0.0143244285 -0.06558682 -0.18093088 -0.124691874 0.026147421
-0.042559978 -0.047173988 -0.02198982 0.096156955 0.04936247 0.046162684 0.03136189 0.09494096
0.0985215 0.077329524 0.049576215 0.253821 0.15576181 -0.01021782 0.027205216 0.24754862
-0.13115102 -0.11754042 -0.017675636 -0.12613332 -0.1000143 -0.03994303 -0.14735365 -0.16767769
-0.11527343 0.21809976 -0.13445966 -0.062256325 -0.13455026 0.18013136 0.27818924 -0.119233996
-0.023756795 0.07630748 0.13223353 0.070862435 -0.14831014 0.08105918 0.086919226 0.008078155
0.05081314 -0.17307426 -0.2803491 -0.28829387 -0.22816132 -0.12897874 -0.23270802 -0.23203404
-0.22108869 -0.17703104 0.09184959 -0.3409925 -0.2281422 -0.19672364 -0.045240186 0.040145583
-0.3260513 -0.16098472 -0.11652386 0.019156154 0.05204731 -0.33398533 -0.042493764 0.1434712
0.07871431 0.03496643 0.118346825 0.03309735 -0.10629605 -0.025883833 -0.23232977 0.14639604

conv2.bias f4 [16]
00000000: cd42 16bf 780f 62be 2811 0c3f cdd1 35be
00000010: 059b f1bd 3b1b 943e 4001 bb3f d00f 8abf
00000020: 0f6b 2abe 19c7 3f3f 7452 1b3f 868a ab3e
00000030: 8b3c 2dbf 40c7 453d dac5 d1be 0148 4abe
-0.5869568 -0.22076213 0.5471368 -0.17755814 -0.11797146 0.28927025 1.4609756 -1.0786076
-0.16642402 0.74913174 0.6067269 0.33504122 -0.67670506 0.048285723 -0.4097126 -0.1975403

fc1.weight f4 [120, 400]
00000000: d8f9 abbc dc46 1ebc 1d33 5dbd a862 b9bd
00000010: 7c2a a0bd afea a1bd 2f26 89bd 615b b9bd
00000020: f7b7 2cbd 52f6 babd 062d 84bd 2542 04bc
00000030: 0bb1 0cbd 85ec fbb9 8cd6 973c 608f 08bd
00000040: 7f0b e73c 3827 ecb9 587a 173c 5618 d4bc
00000050: 124f 99bc 16f0 24bd ea6d d7bc 8957 bcbc
00000060: 016c 403c bafa 473c 92bc bcbc 3dda d53c
00000070: 4ea4 0e3d a9d9 d8bc b937 21bc 1a01 633d
00000080: 2e01 95bc fb4a 7bbd 8e66 1dbd 8094 bb3b
00000090: e869 c2bc 01dc f6bb 0723 74ba 53dd f33b
000000a0: 6ddb 0dbd 07be e2bc 957c 1b3b 4050 8a3c
000000b0: ab94 4ebc 36c2 64bd 7c1f 83bb 4ec6 84bc
000000c0: 36eb 8abd 27aa 81bd 4645 43bd 0a57 cebc
000000d0: d63c 513c 811e 8fbd 1169 573c a62d 56bd
000000e0: 2e96 04bc 4260 4cbd 6fdf a6bc b520 183d
000000f0: 8b6b 25bd 657b 8fbc 6450 eebc 8ca0 b53c
00000100: 1e11 f63c 5fe7 e4ba 1481 f33c 7a4c a53c
00000110: 26c8 e1bc 46bb 52bd a649 6a3c c4c0 3d3c
00000120: 5483 56bd ecd2 863c 8454 3fbd 21e5 da3a
00000130: 4d30 513b 2672 54bd b4ea 6abd 6092 6abd
00000140: 4838 3abb 4822 693d 4a81 efbb d3a6 baba
00000150: 5603 debc c521 a83a eb54 543d 6816 983c
00000160: 28f2 8c3d 8a63 dcbc 27e3 3bbc e127 2ebd
00000170: 161c 18bd ef02 f4bc 8f38 953c f416 e4bc
00000180: b13d 3bbd bdcc 2cbd 6cf4 5cbb 04f9 c6bc
00000190: 9bcb d6bc 8c9e cabc fa91 3d3c fcc5 5ebd
000001a0: 23c6 55bd 73b1 e9bc f079 48bd 7774 4a3c
000001b0: e54d 15bd 4344 20bd 552d 453d 1d87 603b
000001c0: e067 593d b8d7 c8bc 2940 1ebd 5d8c 45bd
000001d0: 1f37 4b3c fb4f d33c 5e83 243c 942e 65bd
000001e0: bf91 f0bc 3d1f 763b 8be1 c13c 1647 43bd
000001f0: 68de 943c db3c 503c 0558 51bd 9f8f 1cbc
00000200: 714d 803d bc30 fc3c 97e8 733d 0143 3bbb
00000210: a1c9 e43c d34e b2bc e459 12bd 549a 61bb
00000220: e281 c2bc 04a0 333c 1ff4 ac3d aa2b 263d
00000230: 0fa4 72bd 41d2 b3bc 4a48 983c 0748 953d
00000240: 3313 453d 8edd 813c 91cb 4c3c 05e3 2cbd
00000250: 5fcc bebb 4cd9 cbbc 9db8 be3d ff60 163e
00000260: 36bb 2c3e 7e6c ba3d a022 d63d 91bc 0f3d
00000270: 9946 323d 0c2f fa3d 0bd4 4d3d e3fa 48bb
00000280: e045 5f3c 1754 09bb 205c 1dbb 9c54 e73c
00000290: 6c85 28bd 9cb4 393d 3d04 f53c 7467 403c
000002a0: 2971 d13b 7bb5 163d 276b 9d3d 8532 a5bc
000002b0: b44a 4d3d 5ca9 20bc 1e1a d93d 8a20 cebd
000002c0: d170 afbd c411 e5bd fbd1 7cbd 274e 97bd
000002d0: 77a5 d7bd 1944 09bd d375 a4bd 6785 02bc
000002e0: 6fd6 73bd cb08 353c 32b4 10bc 898f 7fbb
000002f0: 1f9c 07bd 63a5 2c3c 7bac 46bd eda4 59bd
00000300: a7e1 88ba f638 ad3c 9de4 dcbc 0596 9abd
00000310: 1ea7 da3c 9c0c 40bc 44af 9fbd b439 6cb9
00000320: f9d6 2d3c c138 083c 4533 793c 79ca 243d
00000330: daa5 4db9 c657 84bd adac 2abd 643e 82bd
00000340: b27b 463d 5f57 243c 211f 39bd 6861 e93c
00000350: 975a 413d dff3 aabc d75c 5fba 0a4b ff3c
00000360: 25c7 a8ba 64fa 3bbd 8deb e43c 5dd0 6abb
00000370: 12e4 1abd fcd9 6cbd bb4f 82bc afeb 993c
00000380: 81a7 563c d7e7 64bd 8779 eebc 29da c03c
00000390: b178 73bc c8f3 b53c 155a 1c3d acff b8bc
000003a0: 2693 9b3c 01b9 e3bc 3137 e7bc e9f1 8d3d
000003b0: a66a 883c 27f6 d5bc d93b 2e3c c787 0b3d
000003c0: d9be a6ba 3692 213d fefa a23c e170 3fbc
000003d0: a546 39bb 693c 0a3d 2bea fabc 0ae6 823c
000003e0: dbe2 dabc 2179 533d e405 3f3d 3ec5 38bc
000003f0: 8d5e a83d 4182 90bc 87f7 843d 6505 2c3c
-0.020993158 -0.009660449 -0.054003824 -0.0905202 -0.07820603 -0.079060905 -0.06696736 -0.09050632
-0.04216763 -0.09129013 -0.064539 -0.008072411 -0.03434853 -0.00048050671 0.018534921 -0.033339858
0.028203724 -0.00045042648 0.009245478 -0.02589051 -0.018714461 -0.040268026 -0.026297528 -0.022990959
0.0117445 0.012205774 -0.023039136 0.02610504 0.034824662 -0.026470976 -0.0098399455 0.055420972
-0.01818904 -0.061350804 -0.038427882 0.0057244897 -0.02373214 -0.0075335507 -0.0009313081 0.0074421554
-0.03463309 -0.027678503 0.002372538 0.01688397 -0.012608687 -0.055849276 -0.004001556 -0.01620784
-0.06783144 -0.06331282 -0.047673486 -0.025187988 0.012770852 -0.0698824 0.013147608 -0.052289627
-0.008092446 -0.049896486 -0.020370213 0.037140567 -0.040385764 -0.017514894 -0.029091068 0.022171281
0.030037459 -0.0017463973 0.029724635 0.020178068 -0.027561259 -0.05144813 0.014299786 0.011581603
-0.052371338 0.016457997 -0.04671146 0.0016700366 0.0031919659 -0.051866673 -0.057352737 -0.0572685
-0.0028414894 0.05691746 -0.0073091136 -0.0014240391 -0.0271012 0.0012827447 0.051838797 0.018565372
0.06882125 -0.026902933 -0.011467732 -0.0425185 -0.03713616 -0.029786555 0.018215446 -0.027842976
-0.04571313 -0.04218744 -0.0033715023 -0.024288662 -0.026220134 -0.024733804 0.011570448 -0.05438803
-0.05219091 -0.028526997 -0.048944414 0.012356869 -0.03645124 -0.0391276 0.048138935 0.0034260221
0.05307758 -0.024516925 -0.038635407 -0.048229564 0.012403279 0.025794974 0.010041086 -0.055952623
-0.029366372 0.003755524 0.023667118 -0.047675215 0.018172458 0.012709822 -0.051109333 -0.009555726
0.06264771 0.030784957 0.059547987 -0.0028573873 0.027928175 -0.021766102 -0.035730258 -0.0034424262
-0.023743574 0.010963444 0.08445 0.040568985 -0.05923849 -0.021950843 0.018589158 0.07289129
0.048114013 0.015852716 0.012499706 -0.04220869 -0.005822703 -0.024883889 0.09312556 0.14685439
0.1686829 0.091027245 0.10455823 0.03509194 0.04352436 0.12216005 0.050251048 -0.0030667118
0.013627499 -0.0020954662 -0.002401121 0.028238587 -0.041142866 0.04533826 0.029909248 0.011743415
0.0063916636 0.036794167 0.07686453 -0.020165691 0.05012007 -0.009806003 0.106006846 -0.100648
-0.0856644 -0.11185029 -0.06172369 -0.07387953 -0.10529607 -0.03351221 -0.08030286 -0.007966376
-0.05953067 0.01104946 -0.008832024 -0.0038995466 -0.033107873 0.010537478 -0.048504334 -0.0531358
-0.0010443226 0.021145325 -0.02696448 -0.07548145 0.026691016 -0.011721756 -0.07797101 -0.0002252821
0.0106103355 0.008314312 0.0152099775 0.040232155 -0.00019612108 -0.06462054 -0.041668583 -0.06359556
0.04845781 0.0100305965 -0.045195702 0.02848883 0.047205534 -0.02086824 -0.0008520609 0.031163711
-0.0012876733 -0.045893088 0.02794435 -0.003582976 -0.03781516 -0.057825074 -0.01590716 0.01878914
0.0131014595 -0.055885162 -0.029110683 0.023541527 -0.014860318 0.02221097 0.038171846 -0.022582851
0.018991064 -0.027798178 -0.02822456 0.06930906 0.016652416 -0.026118351 0.010634386 0.034065034
-0.0012721672 0.03944608 0.019895073 -0.011684627 -0.0028270867 0.033749018 -0.030629238 0.015978832
-0.026719501 0.05162919 0.046636477 -0.011277495 0.08221159 -0.017640235 0.064925246 0.010499333

fc1.bias f4 [120]
00000000: f96c 343e 3b68 e23d f8cf d3bc 1998 31be
00000010: a89f 1d3c d969 c73c 1e1a 1fbd cf69 813d
00000020: 904d 293e 981a 193d b3bb 20bd c4f1 c9be
00000030: 3c05 de3d 5492 1f3d fd0c c5bd cce3 a63c
00000040: e8f2 283e bf2e 9a3e b2c1 903c cafc 2b3d
00000050: 3325 25bd 7768 e33c 0092 673c b67d 01bd
00000060: 2c92 333e 629c 3fbd 38df 21bd d4e3 11bd
00000070: 39f5 11bd 1bd2 873d 85ec 6f3e 82e5 41bc
00000080: 26fa 4d3e 567e cabd aa4e 0d3e 1c6c d9ba
00000090: f101 243d 2f3a 083e f1b6 f03c 4c19 253e
000000a0: 9a2b 123d cb6a 463e f081 9ebd bcfb 4bbd
000000b0: 9ccb b13d c47c 8cbb 1e9c d4bd 3913 613d
000000c0: cbb9 3f3e c041 603d 4d49 87bc ff9c 31bd
000000d0: 6008 293d 17e1 523d 9615 f3bd 5bf8 0a3d
000000e0: 3ae5 a4bc 5b1f a13d 4ad6 a5bd bf3e 10bc
000000f0: d4c2 43bd 3d26 f93d 94a9 003e b907 6cbc
00000100: 88d3 a6bd 8604 b23d 713d 833d 2d83 0c3d
00000110: d94a 843e f2ae fd3c 39ea e2bc fdc6 dfbd
00000120: 9458 9d3c 12c7 9f3d c02e e1bc 0c0d 85bd
00000130: 428c 40bd 45b6 f9bb b703 ed3d 17b8 e2bc
00000140: 7958 11bb 324b bebc 03ee 3abd 51a1 133e
00000150: 2e50 8ebb 31cf a3bd 9c0d fd3d f38f 11bd
00000160: 53b9 993d fd17 d83d 8c4b fc3c 699b cd3d
00000170: 1c55 843d 022a d8bc 830e f0bc 09e5 6bbc
00000180: 9e45 3d3e e020 2ebd e083 773e 503a f93d
00000190: 334a c43c 8d4b a8bc 1c1e fe3d 6356 2cbc
000001a0: 4271 05be 9aa6 d73c 2cc5 a9bd c06b 6b3c
000001b0: e8a4 723e 59e3 0939 50f9 b7bb 1cce febc
000001c0: a561 6bbd b34d 163c 7480 913d ae9a 663e
000001d0: 49af 92bd 7bcc 223e bd86 a7bd a6e6 adbc
0.17619695 0.11055037 -0.025856003 -0.17343177 0.009620585 0.024342464 -0.038843267 0.063190095
0.16533494 0.037378877 -0.039241504 -0.39442265 0.10840842 0.03895791 -0.09621618 0.020372294
0.16498911 0.3011379 0.017670486 0.041989125 -0.04031868 0.027759774 0.01413393 -0.031614028
0.17536229 -0.046779998 -0.03951952 -0.035617664 -0.035634253 0.06631871 0.23430069 -0.011834504
0.20114955 -0.09887378 0.13799539 -0.0016588005 0.040040914 0.13303445 0.029384108 0.16122931
0.035686113 0.19376676 -0.07739627 -0.04980062 0.086814135 -0.004287334 -0.103813395 0.054949973
0.18723218 0.054750204 -0.016514445 -0.043362614 0.041267753 0.051484194 -0.118693516 0.033928256
-0.020128835 0.07867309 -0.08097513 -0.008804022 -0.047793224 0.121654965 0.12564689 -0.014406138
-0.08145815 0.08692269 0.064082034 0.034304786 0.25838354 0.03096721 -0.027699577 -0.10926626
0.019207276 0.078016415 -0.027488112 -0.06496629 -0.04700876 -0.007620605 0.11572974 -0.027675672
-0.0022177978 -0.023229215 -0.045637142 0.14417006 -0.0043430543 -0.07998503 0.123561114 -0.03553767
0.07506051 0.105514504 0.030797742 0.10039408 0.06461546 -0.026387218 -0.029303795 -0.014397868
0.18483588 -0.04251182 0.241714 0.12169325 0.023961162 -0.020543838 0.12408087 -0.010518643
-0.13031486 0.026324559 -0.08289561 0.014368951 0.23695719 0.00013150032 -0.005614437 -0.03110414
-0.057466168 0.009173798 0.071045786 0.22519943 -0.07162339 0.15898316 -0.08179996 -0.021228146

fc2.weight f4 [84, 120]
00000000: 1db6 bd3d ed38 17be 7f73 753d cd3c dfbd
00000010: f5a3 583d c251 ab3d 73c3 09bb 09c9 553c
00000020: 6b8c 363e 56df e7bd df11 8fbd b4b1 c9bd
00000030: 3c88 9c3c d5e5 aebd 1b46 053d d222 9f3d
00000040: e532 07bd 1670 d0bd ae44 9d3d a64b 9c3c
00000050: de54 c4bd 0ad6 c1bd 5712 073e 8584 01be
00000060: ef30 fbbc 312e 5bba c40b 47bc a2ad 2bbd
00000070: 2af4 4fbd 1004 56bd 0afc bd3d 444c d73d
00000080: 905a 15bd d388 a8bd 54f0 bfbd 8bb3 04bc
00000090: 0377 243c a078 123e 2c1c 19bd 69f8 98bc
000000a0: ed23 48bd 9fca a9bc 17c0 ac3c 4e5b 0f3b
000000b0: 525c 713d 3d78 a53d ffbb 86bd a964 f5bd
000000c0: a551 72bd cfc9 d33c 1530 403c ca1f bebd
000000d0: d7ae aabd 6221 d6bd 709e 6f3d ab16 7bbd
000000e0: e629 dfbd ffa6 7f3d 7d5f 863d 3df2 a23d
000000f0: 165f 89bd 3b1c b1bd 1467 913d 23c6 4a3d
00000100: b81e fdbd f808 efbd 1247 d4bd 63c3 873d
00000110: a7a4 d23d 0614 07bc f72d f2bc b8f6 b8bd
00000120: 9feb 9b3d 4dbc 1c3d c48d 0cbe 15ed 6dbd
00000130: 2d02 1b3d 8ab1 d53c 60f4 9a3d 33a1 68bd
00000140: 08d0 083c f5bf 6c3d 174c 2d3c d092 bdbd
00000150: dc55 503d 9e46 83bc 248c 883c 3fe5 953c
00000160: 7671 b9bd 0cee 463d 9414 933d 2a88 283d
00000170: 0da8 1dbd ca38 173b eaf1 1c3a d004 d3bb
00000180: 3a21 723c ed2e e3bd f857 b23d 049e b93d
00000190: c8e9 4dbc df53 5ebd c177 0b3d 12df 1c3d
000001a0: c036 023d db50 a43c 630e d4bc 0d36 603d
000001b0: 71c3 223d 1b13 37bd 5aaa 803d 9315 c03d
000001c0: 6110 eb3b 84ae 04be 2b6b 893c 604f d63c
000001d0: dd32 8f3d 06b5 493d 96b6 83bd e1be f9bd
000001e0: 4b33 7e3c ce83 2b3d b20f acbc 9450 d6bc
000001f0: 547d 2abd b7ac 9dbd 63df 9cbd 0826 a3bd
00000200: c7fc 9cbd 5b4f 303d 714c 9bbd 352a 9cbb
00000210: 1e4f 213c a55f 62bd 8add 9cbd 0062 51bd
00000220: d462 c63c 8b5c 463c a999 a13d 90cd d6bc
00000230: 2bff fb3c 01e5 cabd 9efe c4bd eb5c dfbd
00000240: 342f 9dbd 9c6d a33c e316 d0bd f11f b4bd
00000250: 03e0 f33c 2333 5e3d cc6a 193d 47f1 1b3d
00000260: 1c1f 8bbc 0e5e 853d 03aa b0bd 784c 9c3b
00000270: 96c4 1dbb f54a 913b 5419 0bbc b35c 3a3d
00000280: b473 b93d a9e7 de3c 8e3b 8e3c 99bd ecbc
00000290: 40b5 bfbc 01b8 5bbd 329d abbc 7d81 c1bd
000002a0: 0fea 77bc 4ef2 4cbd b3bb 41bd 0a5c 733c
000002b0: 8adb c0bd 37a0 bbbd 0845 0b3d e0a3 fb3c
000002c0: 8c34 9cbd 5992 a03d d347 0fbd 5ce5 1e3c
000002d0: 758b b8bc a405 1abd 702e aabd fe3e 95bd
000002e0: 82c5 423d 345f bfbd 05e3 fbbb 1334 2d3d
000002f0: 546c 1ebc ab50 edbc cc6e 6dbd 9951 d33d
00000300: 072e a23c a28c 53bd b660 af3d 2d37 d6bb
00000310: 099e 59bd bf88 6d3d 9791 0c3c 403b 8bbd
00000320: 624d b53c 30e4 053d 410d 0abd 5617 80bc
00000330: a9ed 81bc faa8 c4bd 9b36 3dba 5711 dbbc
00000340: 01f0 1bbc fdcd 77bd b652 6f3d 9e67 09bd
00000350: cd15 4cbd 8612 0d3d c995 283d 5251 23bd
00000360: a541 cf3c 349e 143c 416e afbd fd29 853c
00000370: e0aa 8fbd 7522 713c 7be2 b7bd 5b06 3f3d
00000380: f811 ee3c 10f8 6dbc 0ce5 8d3d 1c55 67bc
00000390: 15e1 8b3d 1d1a 373d 6271 7e3d 15c8 c23c
000003a0: 9aba 14bd cec2 2ebd eb84 9ebd fea1 87bd
000003b0: 335a 2fbd d402 36bd 079c 6ebd bb7f c8b9
000003c0: fa87 04bd 6270 6abd 5b80 593d c72c 81bd
000003d0: 390b 823d fdc5 ddbd 148f f7bc ffd4 a73d
000003e0: 170e d9bd 185d 803d 3af3 003e bfeb 22bc
000003f0: d800 c9bd fae9 0c3c 9674 d53d 7aba c6bd
0.09263251 -0.14767809 0.0599246 -0.10900269 0.052890737 0.083652034 -0.0021021038 0.013048419
0.17827003 -0.11321895 -0.069858305 -0.09848347 0.01910793 -0.08539931 0.03253756 0.07770313
-0.03300752 -0.10177629 0.07679115 0.01907904 -0.095865 -0.09464653 0.1319059 -0.12648208
-0.030662982 -0.000836107 -0.012148801 -0.041913636 -0.050769962 -0.052249968 0.09276588 0.105125934
-0.03646332 -0.08229222 -0.09372011 -0.008099447 0.01003814 0.14303827 -0.037380382 -0.018673139
-0.048862386 -0.0207265 0.02108769 0.002187449 0.058925934 0.08079574 -0.06578826 -0.1198209
-0.059159894 0.025853066 0.011730214 -0.09283407 -0.08334129 -0.10455586 0.058500707 -0.061300915
-0.10896663 0.06241512 0.06561182 0.079563595 -0.06707589 -0.08647963 0.07099739 0.049505364
-0.12359375 -0.116716325 -0.10365118 0.06629064 0.10285311 -0.00824452 -0.029562933 -0.09031433
0.076133005 0.038265515 -0.13725954 -0.058087427 0.03784387 0.026085634 0.07566142 -0.056794357
0.00835038 0.057800252 0.010577223 -0.09256518 0.050863132 -0.016024884 0.016668387 0.01829779
-0.09054844 0.048566863 0.07181659 0.04114548 -0.038490344 0.002307462 0.0005986976 -0.0064397827
0.01477843 -0.11092935 0.08708185 0.09063342 -0.012567945 -0.054279204 0.034049753 0.038298674
0.031790495 0.020058086 -0.025885766 0.054739047 0.03973717 -0.044695955 0.06282492 0.09379115
0.0071735834 -0.12957197 0.016774734 0.026160896 0.06992123 0.049244903 -0.0643131 -0.121946104
0.015515159 0.041873746 -0.021003578 -0.02616147 -0.04162343 -0.07698958 -0.07659795 -0.07966238
-0.07665401 0.04304443 -0.075829394 -0.0047657737 0.009845523 -0.055266995 -0.07659443 -0.05111885
0.024217047 0.012107025 0.078906365 -0.026221067 0.030761322 -0.0990696 -0.09618877 -0.109063946
-0.07675019 0.019949727 -0.10160615 -0.08795155 0.029769903 0.054247987 0.037455365 0.038071897
-0.016982608 0.0651208 -0.08626177 0.004769858 -0.0024073473 0.0044339844 -0.008489925 0.04549856
0.09055272 0.027210074 0.017362382 -0.028899001 -0.023401856 -0.053642277 -0.02094898 -0.09448526
-0.0151314875 -0.050035767 -0.047298145 0.014853487 -0.09416874 -0.09161418 0.03400138 0.03071779
-0.0762721 0.078404136 -0.034980606 0.009698238 -0.022527436 -0.037603036 -0.083096385 -0.072874054
0.04755164 -0.093443304 -0.007686975 0.04228599 -0.009669382 -0.02896913 -0.057966992 0.10318298
0.019797338 -0.05164779 0.08563368 -0.006537339 -0.05312923 0.05799174 0.008579633 -0.067984104
0.022131626 0.03268832 -0.033704046 -0.015636127 -0.015860396 -0.09602542 -0.00072179147 -0.026741667
-0.009517671 -0.06049918 0.05842849 -0.033546083 -0.04982548 0.034441493 0.04115847 -0.039872475
0.025299856 0.009070922 -0.08565951 0.016255373 -0.07015014 0.014717688 -0.089787446 0.04663692
0.029061303 -0.014524475 0.06928453 -0.014119413 0.0683004 0.044702638 0.06211985 0.023777047
-0.03631077 -0.04266625 -0.07740196 -0.066226944 -0.04281063 -0.04443629 -0.058254268 -0.0003824214
-0.03235624 -0.057236083 0.053100925 -0.06307369 0.06349797 -0.10828779 -0.030219592 0.08194923
-0.105983905 0.06267756 0.12592784 -0.009943902 -0.09814614 0.008600706 0.10422628 -0.09703536

fc2.bias f4 [84]
00000000: e2cd 7d3e d78f abbd d112 573e 19f5 983c
00000010: a1d1 b03d bc16 493b 4fbd 5d3d 68fe d3bd
00000020: 96bf aabd 215e 053e b735 7e3d a81e 4f3e
00000030: 39c6 a7bd 8e99 993e 9145 2dbb 39d8 5e3e
00000040: fd00 fcbc 4760 713e 84f4 773e 3e77 e3bd
00000050: 35ae 6f3c d8c0 aa3e 1099 853d 18ff 4f3e
00000060: e28a 003f 3d57 bfbd 6b49 c03e 4f03 a2bc
00000070: 2840 96bd e007 1e3e 4c47 e63d 2eb5 dc3e
00000080: 36e1 193e ec91 c8bd 917e 0e3e a89a d93e
00000090: 6c04 d73c 31ae 703d 7545 1e3d b713 6abd
000000a0: 0516 98bc c5b5 54bd 3030 013d 167f e23d
000000b0: 7a24 d73d b290 983c 1f47 0d3d 6839 c1bd
000000c0: eff3 cabd ac5d adbc 6323 05be ed56 bb3d
000000d0: aade 003e 6b16 243d 94f4 843e 39c7 b7bd
000000e0: 7df8 823d 82d4 4d3d 4ba1 2cbd 3bdc f7bc
000000f0: 7905 74bb 23bb f7bc d480 0b3e 5465 333e
00000100: 2511 2f3d d27f 0dbd d022 f63e 7f4f 18bd
00000110: fcad 22bd 5ef0 f4bd 20ea 7c3d c7c3 193e
00000120: d426 093e 9ca7 583e 59ac 953d 6ebe 12bd
00000130: 7387 163e 6df7 d33e 67ca 6bbd 28cc 023e
00000140: 0568 2d3e c7cb afbc 5137 ce3e 5d4c 383e
0.2478557 -0.08377045 0.21003272 0.01867156 0.086337335 0.0030683717 0.054135617 -0.103512585
-0.08337323 0.13024189 0.062062945 0.20226538 -0.08192105 0.29999965 -0.002643917 0.2176217
-0.03076219 0.23571883 0.24214369 -0.11106728 0.014628937 0.33350253 0.06523335 0.20312154
0.5021192 -0.09342811 0.37556013 -0.019776968 -0.073364556 0.15432692 0.112440675 0.4310698
0.15027317 -0.097934574 0.13915469 0.42500806 0.026247226 0.058759872 0.038640458 -0.057147708
-0.018565187 -0.05193116 0.031540096 0.11059396 0.10505004 0.018623684 0.034491654 -0.094347775
-0.09909808 -0.02116283 -0.1300178 0.09147439 0.1258494 0.040060442 0.25967848 -0.089735456
0.06395052 0.05025149 -0.04214601 -0.030256381 -0.0037234707 -0.0302406 0.13623363 0.17519122
0.04274096 -0.034545727 0.48073435 -0.03718519 -0.039716706 -0.11959909 0.061746716 0.1501609
0.13393718 0.21157688 0.07308263 -0.03582614 0.14700107 0.41399708 -0.057566073 0.12773192
0.16934212 -0.021459473 0.40276578 0.1799788

fc3.weight f4 [10, 84]
00000000: b1f0 a3be 39ff cf3d 35a5 16be cb7e f63d
00000010: ab0c e93c ecf2 403e 5205 e1bd c2ee 2b3d
00000020: 9579 303e edf8 783d 008f 433e 01d6 b1bc
00000030: 4bb1 12be 65a0 85bd fde3 17bd b45a bc3d
00000040: 162f b83e b160 cebd de8c 16be 9c8b 6b3d
00000050: 02af bfbd e23b 643e be04 a03e 2f6a 513e
00000060: 690c 9ebe 557b 0f3e 2eff b0bd fc92 8d3d
00000070: e4cd 8dbc b855 313e d2d5 3d3e 0472 373e
00000080: 7aee 21bd 44d0 093e 813e 44bd 4d0e d63d
00000090: edc8 e8bd 9871 863e 595e 693e ab3d cc3d
000000a0: 8b4f 21bc 548c f7ba 84d8 50bd 4fd9 e2bd
000000b0: 8bb5 70be 6612 b93d dced 023e b589 e7bc
000000c0: ec1e ce3c d91e c4bd 01fe ab3d 755c aabe
000000d0: 5fea 933d cb59 53bd 654e 41be 7bfd 013e
000000e0: ba01 103e cfaf 003e 6a3d 093e fc77 58bb
000000f0: d26f 1f3e 5306 0b3c deee 3cbd 162c 433e
00000100: 3cdc af3c d1b1 9bba 8d57 ffbd cd78 983d
00000110: 71c4 023d cce9 463d 8f07 99bd 9fa4 01bc
00000120: 463c 653d bb21 39be 1851 3fbe 95d5 bbbd
00000130: 099b 1cbe 4cef 93bd 21fb 533d 84e3 a83e
00000140: dd69 fd3d fc79 6f3e ed38 efbd 7c40 19be
00000150: fdea 8fbd 6c5b a1bd 9ea9 0bbe 785e ee3c
00000160: 2863 c03d d5e9 b43e 5c29 053e 96ea 53bb
00000170: 90e8 4ebe 8be7 543e f0da ae3e 6c73 38be
00000180: 1bd4 e33d 021b 0ebe 72af 373e 9616 82be
00000190: 8b4a 45be 5450 85be 24a8 0cbe ff56 8cbd
000001a0: fc24 b7bd 91f2 8f3d 89bd ad3a 3e4e 113e
000001b0: 31ae 0e3b 6929 093c 90e5 2ebe 78b5 83bb
000001c0: edfd 6cbd db64 ccbc 4e33 e13c 7cc5 81be
000001d0: b544 833e db0e bebd e49c a23d f60b 42be
000001e0: 3a7a d13d e62f 2d3d de5a 583e 24b8 e63c
000001f0: 6f7e aebd 7090 0e3e 3037 29be cd17 00bd
00000200: cec9 8c3e b9b6 dabd feda 113e 0e90 b93d
00000210: 1bb8 f03c 6567 5d3d 2c24 e5bd 19a6 e93d
00000220: be1c 07be 8fac 453d 455d 2cbe 1f04 773e
00000230: a8a0 bbbc 4c5c 53be d082 cd3c a2db 4ebd
00000240: d717 56be 4fbc 143e dc8b 3fbe 37ee 8b3d
00000250: 9bd8 953d 091b 3e3a 195d a2be f190 813e
00000260: 5a0c c43c 611a 173d af47 c0bd fe50 f7bc
00000270: 0bf9 033e e9e1 383e 9ff0 2d3e 862c 853d
00000280: d750 aa3d 07a0 f3bd 8de0 f23d 8276 933d
00000290: 085c 803e f0f2 633e 3ca3 95be c06c 46be
000002a0: dc7a 163d a871 62bc 164d bfbd a55f 3ebc
000002b0: 82bd 60be 594b 44be d98c 2bbd d36f 553e
000002c0: df78 793e 6840 c5bd 7a04 21be e98d 16bd
000002d0: 4ab0 ab3d 8c88 0d3e 87c5 cf3d 943c 283e
000002e0: a231 f53d fc74 a0bc f94f 8d3e 9ceb 3c3c
000002f0: 6857 7c3d 0b1f 3bbc eaa6 c63d 3f94 abbd
00000300: fbaa 9e3c 59e6 f6bc ed60 113d 9e81 7abd
00000310: 705d 24bd 320d 933d aa9d adbd 99ab 353e
00000320: f95a 23bd 3d21 4d3d c37a c93d b508 423e
00000330: 6b21 5a3e 4b66 b13c 6420 863c fb9e ecbd
00000340: 5a30 2b3e 3ae6 923d 2b4e d83d 96b0 4e3e
00000350: de03 3fbc a1e3 04be cac2 fd3d 7bc5 963c
00000360: b5d2 e9bd aa55 21be 44e7 9a3c f353 093e
00000370: 1469 663e 7bef 643d 7e1b 3b3d dbbd 183e
00000380: 260f e2bd 8258 833e 969f dfbd 725b 923d
00000390: a7a0 173c a95a 0bbe b0e5 0a3e 2ee3 26be
000003a0: ea21 833d c188 1bbd d7a7 963e 946e bb3d
000003b0: ec27 39bb f608 fdbd 9a8c 883d 43ef e93c
000003c0: cf7b 3cbe e663 04bc fa1e 89bd 210d 233e
000003d0: cae6 973c 4745 00be 2743 a93d 9391 833e
000003e0: 807a 3c3d 628f a3ba 9fe4 a03e f615 f5bd
000003f0: f84c 51bd e7a0 cfbd 9904 b53d fa50 b13c
-0.3201957 0.10156102 -0.14711459 0.120359026 0.028448423 0.18842667 -0.10987343 0.041975744
0.1723388 0.06078427 0.19097519 -0.02170849 -0.14325444 -0.065247335 -0.03708266 0.09196988
0.35973424 -0.10077036 -0.14702174 0.05750619 -0.09359552 0.22288468 0.31253618 0.20450662
-0.30868843 0.14011891 -0.08642422 0.06912801 -0.01731009 0.17317855 0.18538597 0.17914587
-0.03953407 0.13458353 -0.04791117 0.104519464 -0.113664486 0.2625854 0.22789897 0.099727
-0.009845625 -0.0018886426 -0.050987735 -0.110766046 -0.23506753 0.09036712 0.12786049 -0.028263906
0.02516123 -0.09576196 0.08398057 -0.33273664 0.07222437 -0.051599305 -0.18877561 0.12694351
0.14063159 0.12567066 0.13402334 -0.00330305 0.1557 0.0084853945 -0.04612624 0.19059786
0.02146732 -0.0011878555 -0.12467871 0.07444916 0.031925622 0.04856281 -0.07472145 -0.007912784
0.055965684 -0.18079273 -0.18683279 -0.09171597 -0.15293516 -0.07223377 0.051753167 0.3298608
0.123737074 0.23386377 -0.116807796 -0.14966005 -0.07027242 -0.078787655 -0.13638923 0.02909778
0.093939126 0.3533465 0.13004059 -0.003233587 -0.20205903 0.20791452 0.3415141 -0.1801278
0.1112444 -0.1387749 0.17938021 -0.25407857 -0.19266717 -0.26037848 -0.13736016 -0.06852531
-0.08942601 0.07028688 0.0013255338 0.14190003 0.0021771307 0.008371689 -0.17079759 -0.0040194355
-0.05785935 -0.024950435 0.027490284 -0.2534598 0.25638357 -0.09280177 0.07940081 -0.18949875
0.10228391 0.042282008 0.21128413 0.028163977 -0.08520209 0.13922286 -0.16524959 -0.0312727
0.27497715 -0.10679383 0.14243695 0.090606794 0.029384663 0.054053683 -0.1118854 0.11408634
-0.13194558 0.048260268 -0.16832455 0.24122666 -0.022903755 -0.20640677 0.02508679 -0.050502427
-0.20907532 0.14524959 -0.18705696 0.06832545 0.07316705 0.00072519534 -0.31711653 0.25305894
0.023931671 0.03689039 -0.093886726 -0.030189987 0.12887971 0.18054928 0.16986321 0.06502633
0.083162 -0.11895757 0.11859236 0.07200338 0.25070214 0.22260642 -0.292261 -0.19377422
0.03673826 -0.013821043 -0.09340875 -0.011619483 -0.21947291 -0.19169368 -0.04188237 0.20843439
0.24362515 -0.09631425 -0.15724364 -0.03675643 0.08383234 0.1382162 0.10145097 0.16429359
0.11972357 -0.019587032 0.27600077 0.011530783 0.061606795 -0.011420975 0.09699805 -0.08377885
0.01936864 -0.030139135 0.035492826 -0.06115877 -0.04012817 0.07180251 -0.08477338 0.1774124
-0.03988168 0.050080527 0.09837868 0.18948634 0.2130181 0.021655222 0.016372867 -0.115537606
0.16717663 0.071728185 0.10561784 0.2018455 -0.011658637 -0.12977459 0.12390669 0.018404713
-0.11417142 -0.15755334 0.018909104 0.1341093 0.22501022 0.05589245 0.045680515 0.14916174
-0.110380456 0.25653464 -0.109191105 0.07146348 0.009254611 -0.13608803 0.13564181 -0.162976
0.06402953 -0.037972216 0.29424927 0.091519505 -0.0028252555 -0.12355225 0.066674426 0.028556472
-0.18406604 -0.008080458 -0.066953614 0.15922977 0.018542666 -0.12526427 0.082647614 0.25697002
0.046015263 -0.0012478644 0.31424424 -0.11967079 -0.051098794 -0.101381116 0.088387676 0.021645058

fc3.bias f4 [10]
00000000: 011e 5bbe 232c 43bf 9269 31be 9f21 ed3e
00000010: 4cae 2a3f 49c2 e2ba cf84 5dbb 132e 38be
00000020: 26ad 853e 58d6 b0be
-0.21398164 -0.7623922 -0.17325428 0.46314713 0.66672206 -0.0017300333 -0.0033801084 -0.17986326
0.26108664 -0.3453853
