大三上学期/人工智能原理/实验/cifar10/cifar_net.pth (torch_old, 249562 bytes, 10 tensors)

conv1.weight f4 [6, 3, 5, 5]
0.16415736 -0.011197901 -0.009583144 0.026875481 0.042732798 -0.06900612 -0.23362403 -0.09546804
0.19764304 0.039710388 -0.103548646 -0.3685997 0.16729605 0.32200146 -0.09078558 -0.30034432
-0.16686682 0.298697 0.28005618 -0.15177669 -0.25226644 -0.13351022 0.30543903 0.20405656
-0.00262621 0.13488588 -0.20265557 -0.029343616 0.08936062 -0.007062567 -0.14674953 -0.12885575
0.048592456 0.16226137 -0.011069475 -0.22353686 -0.34091476 0.19187725 0.2706767 -0.02278024
-0.4296059 -0.26992664 0.20300175 0.25590703 -0.15647936 -0.191568 -0.030136734 0.23227364
0.25011984 0.08228548 -0.05930961 -0.13012329 -0.041725304 0.011949752 0.069766715 -0.07527121
-0.15320687 -0.029333573 0.24045931 -0.023946153 -0.31828985 -0.28346756 0.12347707 0.3405145
0.003352305 -0.41483113 -0.14193974 0.33583257 0.30881143 -0.012971662 -0.1920485 0.041421957
0.39767206 0.17705043 0.061485842 -0.15551935 -0.116783015 -0.15062147 -0.0811486 -0.11988004
-0.33251673 0.2538207 -0.060072757 -0.3367238 -0.11449441 0.078253925 0.44939142 0.01883183
-0.67448694 0.26202714 -0.025805358 0.17265704 -0.22878087 -0.26218498 0.2937312 -0.074673355
-0.2826657 -0.046801634 0.16761883 -0.05253698 0.06882021 0.16491543 -0.035583388 0.117312916
-0.045448687 -0.1817255 0.45868912 0.30310413 -0.27043772 0.09264014 0.16475162 0.5005039
0.20795526 -0.53903747 0.41144907 0.23013109 0.2200083 -0.0061219125 -0.12960999 0.3694607
-0.0304895 -0.25688824 0.06863711 0.2521615 -0.106249936 -0.18073341 -0.059507575 -0.16893622
0.089314006 -0.104968 -0.3007577 0.11581956 0.084539846 -0.1524393 -0.021330712 -0.041338727
0.2517601 0.10752057 -0.49365687 0.31797498 0.038952176 0.054472595 -0.17082076 -0.27355772
0.2956331 -0.18511212 -0.2656357 -0.049355075 0.143852 -0.1382891 0.10715917 0.27121043
0.12543629 0.22474767 0.45133433 0.1846669 0.3364198 0.20791334 -0.042947885 0.07059073
0.04312192 0.26873425 0.1903468 -0.2871449 -0.07554538 0.13141276 0.0012618412 0.031040225
-0.3274008 -0.17298388 -0.12287898 -0.12845795 -0.30254233 -0.24166511 -0.10009941 -0.297525
-0.12809348 -0.3698282 -0.42817724 -0.3520746 0.0008625332 0.07671872 -0.09341181 -0.43866813
-0.38000906 0.07298797 0.107092895 -0.013417768 -0.46936065 -0.28343716 0.18072876 0.11930018
-0.13964988 -0.34093225 -0.17601448 0.078643374 0.18475807 -0.04119807 -0.11541679 -0.03752266
-0.124407776 0.03315619 -0.0327274 -0.25024283 -0.019298766 -0.0029325318 0.14318635 0.01919252
-0.26909912 -0.1505401 0.2286177 0.19543092 0.18502386 -0.15299565 -0.18662947 0.17026073
0.36813548 0.04812318 -0.07865016 0.052138936 0.27686918 0.20148695 0.025579413 -0.12127615
0.09385273 -0.20801067 -0.055463858 -0.1835713 -0.036102153 -0.1797712 -0.22846708 -0.15299143
-0.14175306 -0.121670544 -0.19958961 -0.11898835 -0.16090937 -0.19914882 -0.15331729 -0.13378845
-0.08154836 -0.17849004 -0.113756806 -0.053718977 -0.12238731 -0.16921681 -0.0199755 -0.09492607
-0.06679313 -0.14995462 -0.013258105 -0.014661413 0.02811907 -0.009465722 -0.024166819 -0.07861814
00000000: de18 283e 6777 37bc 9f02 1dbc f829 dc3c
00000010: 9608 2f3d 1553 8dbd 233b 6fbe bf84 c3bd
00000020: f062 4a3e 5ca7 223d 5011 d4bd 1ab9 bcbe
00000030: a84f 2b3e 60dd a43e caed b9bd bbc6 99be
00000040: 23df 2abe d0ee 983e 8663 8f3e 596b 1bbe
00000050: 1129 81be e7b6 08be 8162 9c3e 34f4 503e
00000060: 7e1c 2cbb 861f 0a3e f184 4fbe 0662 f0bc
00000070: b302 b73d 1b6d e7bb 8245 16be c3f2 03be
00000080: e208 473d d827 263e be5c 35bc d9e6 64be
00000090: 618c aebe 787b 443e 2396 8a3e a09d babc
000000a0: 4ef5 dbbe d333 8abe b1df 4f3e 3f06 833e
000000b0: 203c 20be 672a 44be 50e1 f6bc 24d9 6d3e
000000c0: b50f 803e 4a85 a83d a2ee 72bd 0a3f 05be
000000d0: 27e8 2abd e5c8 433c dae1 8e3d cb27 9abd
000000e0: 43e2 1cbe f64c f0bc f73a 763e b92a c4bc
000000f0: e3f6 a2be a922 91be 8ce1 fc3d eb57 ae3e
00000100: 58b2 5b3b bf64 d4be a758 11be 3ff2 ab3e
00000110: 881c 9e3e 1887 54bc 5da8 44be 12aa 293d
00000120: ac9b cb3e b54c 353e 94d8 7b3d 7740 1fbe
00000130: ef2b efbd 843c 1abe 3d31 a6bd ab83 f5bd
00000140: a23f aabe c9f4 813e da0e 76bd 1067 acbe
00000150: 0c7c eabd 9843 a03d a216 e63e 3645 9a3c
00000160: 2dab 2cbf 6c28 863e c265 d3bc 02cd 303e
00000170: 8845 6abe 1c3d 86be f063 963e 58ee 98bd
00000180: 8fb9 90be 12b3 3fbd 45a4 2b3e 0431 57bd
00000190: 9cf1 8c3d 97df 283e e3bf 11bd c141 f03d
000001a0: 6728 3abd 4016 3abe 4dd9 ea3e 7730 9b3e
000001b0: d076 8abe 1dba bd3d a6b4 283e 0621 003f
000001c0: 39f2 543e 5cfe 09bf 74a9 d23e 7ca7 6b3e
000001d0: db49 613e 539a c8bb 7bb8 04be f429 bd3e
000001e0: 1ec5 f9bc db86 83be 9d91 8c3d 501b 813e
000001f0: 9199 d9bd 2e12 39be 37be 73bd 9efd 2cbe
00000200: 43ea b63d 76f9 d6bd eafc 99be ce32 ed3d
00000210: 3a23 ad3d 0c19 1cbe bfbd aebc cc52 29bd
00000220: b3e6 803e bf33 dc3d 98c0 fcbe 9ecd a23e
00000230: 518c 1f3d a81e 5f3d a3eb 2ebe c20f 8cbe
00000240: 395d 973e 088e 3dbe 6701 88be 8c28 4abd
00000250: f04d 133e a89b 0dbe 4476 db3d 18dc 8a3e
00000260: 5f72 003e 4124 663e 4b15 e73e 5219 3d3e
00000270: 373f ac3e 3ce7 543e 1fea 2fbd df91 903d
00000280: 9ca0 303d 8997 893e 46ea 423e a804 93be
00000290: 89b7 9abd 1191 063e 5d64 a53a 1248 fe3c
000002a0: 14a1 a7be b022 31be faa7 fbbd 7b8a 03be
000002b0: d4e6 9abe 0f77 77be eb00 cdbd 3255 98be
000002c0: f02a 03be 1f5a bdbe 0c3a dbbe 1f43 b4be
000002d0: a01b 623a b41e 9d3d b14e bfbd 1c99 e0be
000002e0: 8c90 c2be b87a 953d 8553 db3d 33d6 5bbc
000002f0: 0a50 f0be ad1e 91be f610 393e a753 f43d
00000300: 6100 0fbe ac8e aebe 243d 34be c70f a13d
00000310: 3831 3d3e 4fbf 28bd a35f ecbd 5cb1 19bd
00000320: 81c9 febd c9ce 073d 2b0d 06bd d41f 80be
00000330: 7218 9ebc b82f 40bb 719f 123e a239 9d3c
00000340: 5cc7 89be 2f27 1abe c21a 6a3e 0b1f 483e
00000350: e576 3d3e e4aa 1cbe cc1b 3fbe d458 2e3e
00000360: 417c bc3e d01c 453d 5613 a1bd a38f 553d
00000370: ccc1 8d3e 9852 4e3e eb8b d13c a15f f8bd
00000380: dc35 c03d c000 55be 122e 63bd 1dfa 3bbe
00000390: dadf 13bd f115 38be 46f3 69be c9a9 1cbe
000003a0: b727 11be 682e f9bd 3861 4cbe 2ab0 f3bd
000003b0: 6dc5 24be abed 4bbe 35ff 1cbe d7ff 08be
000003c0: d402 a7bd 18c6 36be 54f9 e8bd 6e08 5cbd
000003d0: 33a6 fabd 2c47 2dbe a9a3 a3bc 9968 c2bd
000003e0: d6ca 88bd b48d 19be 8638 59bc 6c36 70bc
000003f0: f759 e63c 1e16 1bbc 7ef9 c5bc 8c02 a1bd

conv1.bias f4 [6]
-0.15881035 -0.09431227 -0.3693537 0.3993897 -0.46803713 -0.42704436
00000000: 2e9f 22be cb26 c1bd ee1b bdbe cf7c cc3e
00000010: 90a2 efbe 8fa5 dabe

conv2.weight f4 [16, 6, 5, 5]
0.1574234 -0.069867454 -0.11015881 -0.006689595 0.07191479 0.21391451 -0.06713078 -0.0605889
0.0468711 0.07042907 0.20758092 0.0519642 0.09577536 -0.0064115636 0.13467799 0.11632622
0.011645575 0.001555245 -0.10107256 0.14993915 -0.114180245 0.104917735 -0.06740706 -0.15500419
-0.034565736 -0.086961135 -0.010600151 -0.121760085 -0.09675274 0.11506931 -0.120390795 -0.016360594
-0.14865495 -0.05139229 0.04272137 0.09853114 -0.07344779 -0.08008837 0.0049103526 -0.009588249
0.09626953 -0.11306777 -0.11331079 0.066116534 -0.059289303 0.025775675 -0.14523154 -0.11879268
-0.08227331 -0.071819745 0.1925095 0.15032789 0.038748655 0.077809624 0.0718154 0.25059578
0.06739634 -0.06483761 0.14654438 0.10209028 0.30545166 -0.078712106 -0.038636927 0.22586003
0.04150949 0.40258893 -0.028915718 -0.103929475 0.19671223 -0.05472295 0.08130041 -0.16978504
-0.21436402 -0.120261505 -0.270367 0.012462833 0.15892147 0.100928575 0.23382957 0.09792684
0.042917658 0.0892372 0.06213544 0.13885354 -0.03235663 -0.118573315 -0.12923242 -0.088511586
0.057145033 0.003426471 -0.1828091 -0.07233075 -0.1463709 -0.08848699 -0.039593413 -0.1533513
-0.11656595 -0.024947882 -0.06490349 -0.0966031 0.08566855 0.10556381 0.066724814 0.008955363
0.07367226 0.0053885765 -0.08430029 0.055905625 0.007719135 0.057179157 -0.07041141 -0.04059402
0.101490475 -0.0063367705 0.08612183 -0.04357963 -0.012218792 0.08483216 0.08314249 0.10084944
0.01943881 -0.077711746 0.10271669 0.12216747 -0.08678578 -0.107306145 -0.09539257 -0.044845417
-0.19010854 -0.08382514 -0.0801527 -0.09507729 -0.13083194 -0.13418478 -0.17800884 0.008867616
-0.12857248 -0.05575979 -0.037950516 -0.07237781 0.016316673 0.065582715 0.032657817 0.037835877
-0.12925749 -0.06853703 0.053384375 0.15817314 0.068167984 -0.012686428 -0.013315669 0.13926288
0.17184402 -0.050243054 0.28798142 -0.08715815 -0.0006767381 -0.040543165 -0.09271749 0.0948661
-0.117539756 0.002791251 -0.16039623 0.12507682 0.0015830813 -0.048889227 -0.06673905 -0.17709853
0.10236831 -0.13578172 -0.16923608 -0.22523844 -0.06567315 0.028537208 -0.12232035 0.21170285
0.03411668 0.019744376 0.20918763 -0.060526837 0.22489032 0.0020768696 0.072091125 0.09212588
-0.22151332 0.12056878 0.009967118 -0.06757665 -0.022692882 -0.029512601 0.046132892 0.012550972
-0.097874425 -0.08986758 -0.044119257 -0.1255571 -0.14055988 -0.095184855 -0.22963284 -0.20367748
0.113990314 0.026679296 0.16407137 0.3981075 -0.12930885 0.0063065337 -0.022345591 0.13200949
0.21346346 -0.1900638 -0.031971022 0.0005253816 0.02407898 -0.041269474 0.09866264 -0.056139044
-0.03411211 -0.013272344 -0.2101438 0.15915497 -0.2188976 -0.13305813 -0.17017852 -0.2764945
-0.18665013 0.022505399 -0.068583325 -0.030032188 -0.15128928 -0.24301039 0.054040894 -0.0124210715
-0.033774503 -0.119930334 -0.22491539 0.07575305 0.12992103 -0.045951776 -0.036523502 -0.14876555
0.15280096 0.082622886 0.041752018 0.045441527 -0.0610955 0.12079212 0.0658644 0.065792084
0.06855995 -0.026319401 0.044260193 -0.08391615 -0.06034828 -0.08038105 0.04245549 -0.05302019
00000000: 9a33 213e ab16 8fbd f19a e1bd 6434 dbbb
00000010: 1048 933d 680c 5b3e dd7b 89bd 112c 78bd
00000020: e9fb 3f3d 1e3d 903d 1890 543e 6ad8 543d
00000030: df25 c43d 1818 d2bb 07e9 093e 713c ee3d
00000040: 15cd 3e3c 5dd9 cb3a 21ff cebd a689 193e
00000050: 55d7 e9bd 1cdf d63d b60c 8abd 6bb9 1ebe
00000060: cd94 0dbd ae18 b2bd 41ac 2dbc 5a5d f9bd
00000070: 4d26 c6bd 75a9 eb3d 738f f6bd a706 86bc
00000080: 0139 18be b980 52bd 9afc 2e3d b2ca c93d
00000090: cc6b 96bd 5f05 a4bd 06e7 a03b 0818 1dbc
000000a0: f628 c53d 1390 e7bd 7d0f e8bd 1b68 873d
000000b0: 57d9 72bd 8227 d33c 94b7 14be 9449 f3bd
000000c0: e97e a8bd 3b16 93bd 3621 453e 8eef 193e
000000d0: e9b6 1e3d a75a 9f3d f413 933d 174e 803e
000000e0: 1807 8a3d 95c9 84bd bb0f 163e b514 d13d
000000f0: 2964 9c3e d033 a1bd c141 1ebd da47 673e
00000100: db05 2a3d 2320 ce3e a8e0 ecbc fad8 d4bd
00000110: ee6e 493e 2c25 60bd d480 a63d 21dc 2dbe
00000120: 3e82 5bbe aa4b f6bd 8b6d 8abe e930 4c3c
00000130: 4fbc 223e a4b3 ce3d 0571 6f3e de8d c83d
00000140: 6dca 2f3d fec1 b63d bb81 7e3d 9f2f 0e3e
00000150: 6388 04bd 91d6 f2bd 8155 04be 9045 b5bd
00000160: e910 6a3d a58e 603b 4f32 3bbe 2522 94bd
00000170: 41e2 15be ab38 b5bd b42c 22bd 2008 1dbe
00000180: 21ba eebd 805f ccbc 1fec 84bd d9d7 c5bd
00000190: fe72 af3d d731 d83d 05a7 883d 84b9 123c
000001a0: 7be1 963d a892 b03b a1a5 acbd 4cfd 643d
000001b0: ccf0 fc3b b134 6a3d db33 90bd ea45 26bd
000001c0: 3dda cf3d afa4 cfbb a460 b03d 8e80 32bd
000001d0: 5431 48bc 7cbc ad3d 9c46 aa3d 278a ce3d
000001e0: 243e 9f3c 5627 9fbd 215d d23d f032 fa3d
000001f0: bebc b1bd 53c3 dbbd 2e5d c3bd d4af 37bd
00000200: d0ab 42be 84ac abbd 1927 a4bd e2b7 c2bd
00000210: cff8 05be bc67 09be f347 36be 7a49 113c
00000220: 81a8 03be 6164 64bd 0072 1bbd d13a 94bd
00000230: 8baa 853c 3b50 863d 34c4 053d cbf9 1a3d
00000240: 135c 04be 245d 8cbd 93a9 5a3d 24f8 213e
00000250: a89b 8b3d bcda 4fbc f729 5abc ee9a 0e3e
00000260: e1f7 2f3e a9cb 4dbd 4d72 933e f97f b2bd
00000270: 2067 31ba 9710 26bd abe2 bdbd 2849 c23d
00000280: afb8 f0bd 6ced 363b e93e 24be 2314 003e
00000290: 657f cf3a 1240 48bd 7cae 88bd 5159 35be
000002a0: 7aa6 d13d 5d0a 0bbe 394c 2dbe e8a4 66be
000002b0: a57f 86bd ddc6 e93c 1783 fabd a2c8 583e
000002c0: efbd 0b3d f5be a13c 4835 563e fdea 77bd
000002d0: a649 663e 171c 083b 83a4 933d 7eac bc3d
000002e0: 63d4 62be c4ec f63d 1f4d 233c a065 8abd
000002f0: 6ce6 b9bc 69c4 f1bc d8f5 3c3d 98a2 4d3c
00000300: 6372 c8bd 7e0c b8bd 65b6 34bd 0a92 00be
00000310: eeee 0fbe 47f0 c2bd df24 6bbe d490 50be
00000320: c173 e93d 8a8e da3c 5302 283e bfd4 cb3e
00000330: 8a69 04be 0aa7 ce3b 1a0e b7bc 7f2d 073e
00000340: 2a96 5a3e 16a0 42be 0cf4 02bd c3b9 093a
00000350: 4841 c53c 2e0a 29bd a30f ca3d 0ef2 65bd
00000360: 24b9 0bbd 3f74 59bc f02f 57be 85f9 223e
00000370: b126 60be 6440 08be 4743 2ebe b090 8dbe
00000380: 3621 3fbe 3e5d b83c 6a75 8cbd 1006 f6bc
00000390: 94eb 1abe b7d7 78be fc59 5d3d c081 4bbc
000003a0: 2257 0abd 099e f5bd 3850 66be 6a24 9b3d
000003b0: 050a 053e ee37 3cbd ab99 15bd ff55 18be
000003c0: db77 1c3e 3036 a93d 2a04 2b3d e520 3a3d
000003d0: 463f 7abd dc61 f73d eae3 863d 00be 863d
000003e0: 2969 8c3d c99b d7bc 2d4a 353d 3bdc abbd
000003f0: c22f 77bd d29e a4bd cfe5 2d3d b32b 59bd

conv2.bias f4 [16]
-0.5160115 0.0009812268 -0.039581154 0.3497797 -0.039850846 -0.019189408 0.636912 1.036807
-0.2093799 -0.6404625 0.24767402 -0.19036517 0.008807772 -0.4087634 0.2915551 -0.18829612
00000000: 5419 04bf 829c 803a d91f 22bd 5316 b33e
00000010: a43a 23bd 1b33 9dbc aa0c 233f 17b6 843f
00000020: af67 56be 5af5 23bf 429e 7d3e 16ef 42be
00000030: 794e 103c 7049 d1be b646 953e b3d0 40be

fc1.weight f4 [120, 400]
0.12372446 0.06861341 0.012769532 -0.039237715 0.03203572 0.032910883 -0.02863249 -0.0884889
-0.09777225 -0.02474905 0.07878998 -0.09371722 -0.12991181 -0.03238923 -0.0032795079 0.039789453
-0.060527578 -0.07892321 -0.06455558 -0.0100985 -0.0034426788 -0.030132078 -0.09672558 -0.041685365
-0.019992739 0.08116841 0.0068146484 0.0011478603 0.028680883 0.012401616 0.0060264333 -0.030188216
-0.031957973 -0.056880444 0.04424693 -0.025821513 -0.004206767 -0.033137366 -0.01540457 0.100166544
-0.023674473 0.0127273835 0.027489092 0.07269115 0.034946308 0.07161527 0.029885769 0.027675625
0.039070826 0.05177567 0.012527254 -0.045831285 -0.03769601 0.036329906 -8.402875e-05 -0.013172796
-0.06461863 -0.0352197 -0.008160909 0.05871369 0.0013447333 -0.008743576 -0.051624022 -0.027894882
-0.015995191 0.027788442 -0.018555492 -0.0024704235 -0.017966665 -0.025910622 -0.026827414 0.021564148
-0.06630106 -0.046432406 0.028641012 -0.015596791 -0.0828389 -0.0077646766 -0.010279716 -0.028153026
-0.026784956 -0.024677329 -0.009554447 -0.036733545 -0.0141013125 0.03397988 0.0070800995 -0.013720467
-0.010447865 -0.02311538 0.056298587 0.012832158 0.036185052 -0.01158613 -0.03353336 0.0494564
0.058371164 0.07729448 0.0597127 0.043521307 0.011146628 -0.069040604 -0.043084584 -0.019151622
0.033395965 0.0063968697 0.014030471 -0.050396267 -0.021285951 0.03778843 -0.009012335 -0.004191861
-0.07967588 -0.030046511 -0.009728417 -0.010641275 -0.05822547 0.02729387 -0.028654499 0.024575692
0.030797286 -0.04187644 0.021178605 -0.0011850311 0.059904803 0.013515766 0.052139953 -0.013570524
0.02282287 0.02642332 0.024754995 -0.032182794 -0.06435395 0.0259788 -0.03783457 -0.024413591
-0.036504984 -0.028028836 0.0067161415 -0.04821288 -0.01842516 -0.04258218 0.035829473 -0.031081371
0.03323157 0.010629383 -0.020833021 0.009223682 0.020343743 0.07399531 -0.010833172 -0.038328957
-0.01981376 -0.018502235 0.003808749 -0.05109865 -0.043373007 -0.002593604 0.025163518 -0.06382358
-0.08535354 -0.05893251 0.009011275 -0.043711595 -0.059736148 0.0074704885 -0.045535706 -0.03555407
-0.03754711 0.003034231 -0.012103115 0.0477269 0.027198039 0.040012717 -0.0069663706 -0.009270923
-0.016311342 -0.04099811 -0.0078092716 -0.04840532 0.069318525 0.1251333 0.09087047 0.01905794
0.0071280263 0.03765224 0.12111364 0.04851477 0.08809632 0.049843654 0.062038094 -0.054034173
-0.003065729 0.021706313 0.012440982 -0.10833792 -0.07048365 -0.106723174 -0.05402866 -0.035347704
-0.0064079477 -0.03583612 -0.05723036 -0.068164855 -0.015771214 -0.022160294 -0.043062262 -0.06876669
-0.076497644 0.03619109 -0.007322179 -0.096079744 -0.10571405 -0.040002782 0.0012549056 0.010907868
-0.077602856 -0.067191646 -0.04436648 0.0006018847 0.034581084 0.003906492 -0.024671322 0.0037106476
0.029159116 -0.0156001225 0.009832567 -0.036994603 0.044286814 0.009220206 -0.02550521 -0.06777586
-0.0007936757 0.0141705815 0.07213182 0.012559988 0.0018220304 -0.013618268 0.004484113 0.036602326
0.06761767 0.0689594 -0.05589399 -0.03362157 -0.012552976 0.035840675 0.10336675 0.027658053
-0.052561186 0.0021776385 -0.06782964 0.034525603 -0.018638441 0.028524067 0.0019876075 -0.05476
00000000: 4063 fd3d 3085 8c3d 4d37 513c bab7 20bd
00000010: e337 033d 90cd 063d af8e eabc ab39 b5bd
00000020: d13c c8bd 85be cabc a45c a13d d0ee bfbd
00000030: 9a07 05be 92aa 04bd 03ed 56bb 44fa 223d
00000040: c4eb 77bd 7ea2 a1bd b735 84bd 2e74 25bc
00000050: 919e 61bb 8cd7 f6bc 1018 c6bd 46be 2abd
00000060: d0c7 a3bc a03b a63d 6a4d df3b cd73 963a
00000070: 2cf4 ea3c 2630 4b3c 6379 c53b 474d f7bc
00000080: 5de6 02bd 78fb 68bd 453c 353d a387 d3bc
00000090: ebd8 89bb 0cbb 07bd 7363 7cbc 1e24 cd3d
000000a0: f8f0 c1bc 8486 503c ce30 e13c 19df 943d
000000b0: dc23 0f3d 07ab 923d 00d3 f43c feb7 e23c
000000c0: bb08 203d ba12 543d 1d3f 4d3c 96b9 3bbd
000000d0: 2267 1abd abce 143d 9738 b0b8 b6d2 57bc
000000e0: c656 84bd 8842 10bd 55b5 05bc c47d 703d
000000f0: c341 b03a 3741 0fbc b673 53bd cf83 e4bc
00000100: 5908 83bc 96a4 e33c b001 98bc d4e6 21bb
00000110: d42e 93bc 8342 d4bc 2ac5 dbbc 4ca7 b03c
00000120: dac8 87bd e82f 3ebd 8ea0 ea3c af89 7fbc
00000130: 71a7 a9bd d46e febb 416c 28bc 2da1 e6bc
00000140: 206c dbbc 1c28 cabc 418a 1cbc ea75 16bd
00000150: 3109 67bc 7d2e 0b3d 2e00 e83b cfcb 60bc
00000160: 862d 2bbc 775c bdbc 5999 663d f93d 523c
00000170: c736 143d c0d3 3dbc 475a 09bd cb92 4a3d
00000180: 9a16 6f3d 914c 9e3d 4e95 743d 6643 323d
00000190: 59a0 363c 2965 8dbd 7679 30bd dde3 9cbc
000001a0: 35ca 083d d59c d13b 10e0 653c 516c 4ebd
000001b0: e05f aebc 0ac8 1a3d 79a8 13bc e15b 89bb
000001c0: 1c2d a3bd 1a24 f6bc f063 1fbc be58 2ebc
000001d0: d57d 6ebd 6597 df3c d7bc eabc f652 c93c
000001e0: 974a fc3c a186 2bbd c17e ad3c 0c53 9bba
000001f0: bd5e 753d 3b71 5d3c b490 553d e756 5ebc
00000200: 07f7 ba3c b875 d83c fdca ca3c 1bd2 03bd
00000210: 01cc 83bd 7ed1 d43c 6cf8 1abd 03ff c7bc
00000220: 4086 15bd bb9c e5bc 1413 dc3b de7a 45bd
00000230: 5cf0 96bc a76a 2ebd edc1 123d 5c9e febc
00000240: d41d 083d dd26 2e3c 03aa aabc ed1e 173c
00000250: eca7 a63c da8a 973d 9e7d 31bc d3fe 1cbd
00000260: 7750 a2bc 0092 97bc 349c 793b d14c 51bd
00000270: e5a7 31bd 74f9 29bb b923 ce3c f0b5 82bd
00000280: d6cd aebd 3763 71bd 07a4 133c ee0a 33bd
00000290: e4ad 74bd 00cb f43b a683 3abd 25a1 11bd
000002a0: 00cb 19bd f3d9 463b 254c 46bc 487d 433d
000002b0: 6cce de3c 60e4 233d 2746 e4bb 12e5 17bc
000002c0: 5d9f 85bc a2ed 27bd ebe4 ffbb a844 46bd
000002d0: dff6 8d3d f222 003e 4c1a ba3d 661f 9c3c
000002e0: 3892 e93b 3c39 1a3d 6e0a f83d 6cb7 463d
000002f0: d86b b43d dc28 4c3d a81b 7e3d f052 5dbd
00000300: 66ea 48bb 70d1 b13c 43d5 4b3c 45e0 ddbd
00000310: bb59 90bd ae91 dabd 284d 5dbd c1c8 10bd
00000320: c3f9 d1bb e5c8 12bd 626a 6abd 049a 8bbd
00000330: a232 81bc 8189 b5bc 0e62 30bd 8dd5 8cbd
00000340: ccaa 9cbd 1c3d 143d e4ee efbb 75c5 c4bd
00000350: 9c80 d8bd f5d9 23bd a57b a43a eab6 323c
00000360: 3fee 9ebd c69b 89bd a0b9 35bd ccc7 1d3a
00000370: e5a4 0d3d 0802 803b 831b cabc 562e 733b
00000380: 19df ee3c a897 7fbc c618 213c a787 17bd
00000390: 1766 353d 5910 173c 4df0 d0bc 12ce 8abd
000003a0: ad0e 50ba ba2b 683c d9b9 933d 68c8 4d3c
000003b0: 32d1 ee3a 281f 5fbc 77ef 923b 52ec 153d
000003c0: 227b 8a3d 963a 8d3d 19f1 64bd c5b6 09bd
000003d0: ffaa 4dbc accd 123d f2b1 d33d 2493 e23c
000003e0: 664a 57bd b6b6 0e3b 44ea 8abd b86a 0d3d
000003f0: a5af 98bc 4eab e93c 8542 023b 064c 60bd

fc1.bias f4 [120]
0.074636176 -0.016869579 -0.11152319 0.056512415 -0.066122435 0.14203314 0.022895733 -0.010532888
0.042248853 0.020760983 -0.08430914 0.035738394 0.14865375 0.072583936 0.032998905 0.009705149
-0.10163899 0.0019800763 0.0061626383 0.048679743 -0.054709155 0.040769115 -0.023922231 0.081374
0.12559225 0.06779524 0.069132425 0.02901686 -0.2016946 0.08221514 -0.036422838 0.14846982
0.081673466 0.1663514 0.053260103 0.039050963 -0.10612548 -0.15087144 0.07819387 -0.015617834
0.0025474217 -0.042461555 0.1507802 0.21625927 -0.060214493 -0.0007813568 -0.045630947 -0.054654
0.23758894 0.14082715 0.004253379 0.12939182 0.055473674 0.13304956 -0.055325653 0.050123166
0.038525473 0.032320175 -0.031580932 -0.075015 -0.06187079 0.010656056 0.002241834 0.130608
-0.048640475 -0.0016769894 0.15074937 -0.05357831 0.068339355 0.056022532 0.10747094 0.067109704
0.022114147 0.05918744 -0.09148117 0.031069105 -0.010613196 0.017988855 -0.06112936 -0.022934765
0.06744022 -0.028540311 0.110488325 0.076550625 -0.056505866 0.006592338 0.049516164 0.04421861
-0.03099148 0.04279631 0.05485956 -0.008821766 0.09925593 0.052458774 0.024427246 -0.01686111
-0.007112432 0.123927176 0.018576689 0.0082244435 0.028360747 0.04907747 -0.016911568 0.09389166
-0.03225448 0.12799424 -0.005902749 0.0549597 0.005717174 -0.0067221844 -0.027856069 0.10084797
-0.031802043 0.013102433 -0.021867609 -0.006825312 -0.0022459226 -0.054056715 -0.050701134 0.030883431
00000000: dada 983d 1232 8abc 4566 e4bd 9079 673d
00000010: 336b 87bd 2371 113e d58f bb3c 2292 2cbc
00000020: 220d 2d3d f012 aa3c 45aa acbd 6c62 123d
00000030: b038 183e e3a6 943d dc29 073d 5802 1f3c
00000040: 1a28 d0bd 2bc4 013b f5ef c93b 6964 473d
00000050: b516 60bd 84fd 263d 8ef8 c3bc 69a7 a63d
00000060: 419b 003e 3bd8 8a3d 4d95 8d3d c4b4 ed3c
00000070: 0789 4ebe 6960 a83d 1d30 15bd 7908 183e
00000080: 6b44 a73d 0558 2a3e 4427 5a3d e7f3 1f3d
00000090: 5158 d9bd 0b7e 1abe 1c24 a03d f2e1 7fbc
000000a0: a5f2 263b 2bec 2dbd 2066 1a3e 1273 5d3e
000000b0: 79a3 76bd f8d3 4cba 84e7 3abd dfdc 5fbd
000000c0: 844a 733e fe34 103e ee5f 8b3b 4a7f 043e
000000d0: 5d38 633d 253e 083e 279d 62bd f34d 4d3d
000000e0: e3cc 1d3d 2962 043d 025b 01bd 77a1 99bd
000000f0: 3a6c 7dbd bd96 2e3c bceb 123b 1bbe 053e
00000100: 3c3b 47bd 6dce dbba 0b5e 1a3e ee74 5bbd
00000110: 81f5 8b3d e277 653d b919 dc3d d070 893d
00000120: ba28 b53c 876e 723d 7b5a bbbd a384 fe3c
00000130: f8e2 2dbc 5d5d 933c c862 7abd b0e1 bbbc
00000140: 191e 8a3d 5fcd e9bc b447 e23d 93c6 9c3d
00000150: b272 67bd 8a04 d83b 76d1 4a3d 931e 353d
00000160: d8e1 fdbc 2f4b 2f3d 6bb4 603d 2b89 10bc
00000170: b146 cb3d 03df 563d a61b c83c 5020 8abc
00000180: 670f e9bb 88cd fd3d 242e 983c d1bf 063c
00000190: cc54 e83c 7505 493d 218a 8abc 454a c03d
000001a0: 461d 04bd ec10 033e d96b c1bb 6c1d 613d
000001b0: 2257 bb3b c545 dcbb 6932 e4bc 6189 ce3d
000001c0: dc42 02bd 96ab 563c b323 b3bc dea6 dfbb
000001d0: 5430 13bb 936a 5dbd feab 4fbd 40ff fc3c

fc2.weight f4 [84, 120]
0.1189889 -0.049759332 -0.002594664 0.006017156 0.052557863 0.08853687 -0.04314156 -0.00021770629
-0.06224502 -0.021641087 -0.09671514 0.01004329 0.07481321 -0.06563119 0.045937933 0.06996043
0.040488284 -0.14259203 0.026651777 0.055984765 -0.04978477 0.079477705 0.00063045643 0.0060238526
0.062400486 -0.02423152 -0.064888194 -0.08253202 -0.12251568 0.07773614 0.020912737 0.12827148
-0.07166278 0.00902436 0.033200875 0.08212397 0.0507537 -0.08091671 0.07761844 0.09180373
-0.042695113 -0.07656183 -0.018235633 -0.071075134 -0.017754383 -0.077049024 -0.1476498 -0.07202536
0.0722625 0.10965319 -0.09525652 0.074141555 -0.057953387 0.0023350094 -0.056404963 0.0028443874
-0.009237778 0.054186426 0.0048067644 -0.04239224 -0.050432958 0.06206881 -0.092119664 0.07946162
0.030368911 -0.051244184 0.091764115 -0.0677621 -0.034790717 0.15231767 -0.028999448 0.06658021
-0.03701958 -0.0119111175 -0.024932656 -0.046109736 0.06032896 0.201783 -0.02365048 0.028245466
0.030299313 -0.083922684 0.1366429 0.021063391 -0.086331494 -0.013186614 0.003574018 -0.025949566
-0.063869976 0.00658988 -0.07978946 0.058260366 0.09754469 0.06255778 -0.09330058 0.078136526
0.033813417 0.0727929 0.038603645 -0.005971073 -0.026693808 -0.004283702 0.037663806 0.03502171
0.03760997 0.0978197 -0.014051291 -0.011273047 0.032583453 0.0615388 -0.07386162 0.12445159
0.07325446 0.016374726 0.025992028 0.008174747 -0.01889733 -0.08583554 -0.04438543 0.123312935
-0.06786972 -0.08528369 -0.026567928 0.08429966 0.07387723 -0.08742405 -0.057310198 -0.054663334
-0.08372422 0.12182168 0.030207975 0.114898734 -0.0002538271 -0.040189642 0.019047502 -0.07100309
-0.053499594 -0.0014730681 0.022005593 -0.030452982 -0.08896161 -0.11515495 0.047122 -0.036572356
0.016338069 0.024225097 0.11795801 0.07881985 -0.11112843 0.067019634 -0.01549667 0.10820221
0.0884228 0.01395522 -0.098744184 0.057602964 0.107144475 -0.10060689 0.050452977 0.0066815745
0.017690433 -0.16701128 0.08859698 0.020217702 -0.09333179 -0.00042169765 -0.019040411 0.012820052
0.1343546 -0.03808127 0.082892 0.013291265 0.080119975 -0.057744287 0.03228337 -0.046466477
0.021001462 -0.01465922 -0.10750167 -0.04235926 0.0651171 -0.059520293 -0.07591984 0.014811811
-0.031748906 -0.034298483 0.08131403 -0.058686137 0.0048415763 0.13894035 0.060010917 0.01846497
-0.005539772 -0.058430117 -0.039467085 -0.07999332 -0.034095474 0.07193967 -0.08692309 0.067622736
-0.050102722 -0.096025534 0.04192818 0.06096664 0.06800817 -0.036079276 0.06504038 -0.084165975
-0.04598469 0.008751335 -0.04769708 0.004690146 -0.02664415 -0.025197513 0.101652384 -0.0056413636
0.017242383 -0.026870264 0.06580781 0.07230102 -0.09702596 -0.02211956 0.04961318 -0.086751044
0.03663594 -0.09329818 0.023378337 -0.02006238 0.006274203 -0.02115944 0.039177492 0.014024748
-0.055566378 0.101340346 -0.01234782 0.007911135 0.01607843 0.03094615 0.04468549 0.08717359
-0.07292825 -0.062214047 0.022555947 0.1092696 0.07780837 0.08271728 0.02130596 0.04164807
-0.039778493 -0.036070924 0.066338524 -0.019967616 -0.12619399 0.13212435 -0.0752542 -0.11220013
00000000: 74b0 f33d 71d0 4bbd 3d0b 2abb 902b c53b
00000010: ea46 573d d252 b53d 34b5 30bd 1648 64b9
00000020: a2f4 7ebd a648 b1bc 9612 c6bd 9d8c 243c
00000030: ab37 993d a569 86bd 6a29 3c3d 6a47 8f3d
00000040: 0bd7 253d a503 12be d454 da3c 4850 653d
00000050: 1deb 4bbd 35c5 a23d 3745 253a bd63 c53b
00000060: a797 7f3d 2e81 c6bc 1ae4 84bd 8c06 a9bd
00000070: 80e9 fabd 2034 9f3d 3051 ab3c 9959 033e
00000080: f0c3 92bd e9da 133c a4fd 073d 9d30 a83d
00000090: 1de3 4f3d a9b7 a5bd 6bf6 9e3d 9803 bc3d
000000a0: 12e1 2ebd 73cc 9cbd e562 95bc d78f 91bd
000000b0: a471 91bc e1cb 9dbd 8231 17be 0882 93bd
000000c0: 5dfe 933d da91 e03d da15 c3bd 87d7 973d
000000d0: 8860 6dbd f506 193b e408 67bd e768 3a3b
000000e0: 0d5a 17bc 96f2 5d3d 1082 9d3b 7ca3 2dbd
000000f0: ca92 4ebd dd3b 7e3d 3ca9 bcbd c6bc a23d
00000100: 39c8 f83c 6ce5 51bd d3ee bb3d dbc6 8abd
00000110: b680 0ebd 2af9 1b3e 4090 edbc 355b 883d
00000120: d8a1 17bd d926 43bc 923f ccbc 90dd 3cbd
00000130: 801b 773d 34a0 4e3e a7be c1bc 0963 e73c
00000140: 4436 f83c a8df abbd 1eec 0b3e 228d ac3c
00000150: 91ce b0bd ab0c 58bc 123a 6a3b 2f94 d4bc
00000160: 43ce 82bd ecef d73b a868 a3bd 6ca2 6e3d
00000170: 83c5 c73d 4b1e 803d 6014 bfbd 0b06 a03d
00000180: f07f 0a3d 7214 953d db1e 1e3d fea8 c3bb
00000190: f9ac dabc 4c5e 8cbb 5d45 1a3d ed72 0f3d
000001a0: e90c 1a3d b255 c83d 6337 66bc 96b2 38bc
000001b0: 3a76 053d 1c10 7c3d c344 97bd 7ae0 fe3d
000001c0: 6f06 963d 4a24 863c 3ced d43c 60ef 053c
000001d0: 93ce 9abc 8bca afbd 7fcd 35bd 7e8b fc3d
000001e0: 48ff 8abd 37a9 aebd fca4 d9bc 4da5 ac3d
000001f0: f24c 973d 610b b3bd 19be 6abd a9e6 5fbd
00000200: 9b77 abbd a57d f93d b776 f73c 0750 eb3d
00000210: 1914 85b9 e59d 24bd 8209 9c3c 116a 91bd
00000220: 6422 5bbd f713 c1ba 1345 b43c 8878 f9bc
00000230: 8131 b6bd 5cd6 ebbd 0003 413d e5cc 15bd
00000240: 6ad7 853c b673 c63c f893 f13d 4d6c a13d
00000250: 4d97 e3bd 9741 893d bfe5 7dbc 1f99 dd3d
00000260: 0317 b53d 6fa4 643c 643a cabd 16f1 6b3d
00000270: 906e db3d fc0a cebd c8a7 4e3d 1cf1 da3b
00000280: 87eb 903c 0105 2bbe 5572 b53d 989f a53c
00000290: bd24 bfbd 4d17 ddb9 a3fa 9bbc 320b 523c
000002a0: 4194 093e 1bfb 1bbd 48c3 a93d 9bc3 593c
000002b0: f115 a43d 4685 6cbd 913b 043d a253 3ebd
000002c0: 420b ac3c 3a2d 70bc d629 dcbd e780 2dbd
000002d0: 1d5c 853d 8dcb 73bd dc7b 9bbd 3dad 723c
000002e0: 240b 02bd 917c 0cbd f887 a63d e060 70bd
000002f0: 16a6 9e3b 6146 0e3e 02ce 753d d943 973c
00000300: fa86 b5bb 6b54 6fbd 3da8 21bd 8ad3 a3bd
00000310: b2a7 0bbd 1b55 933d bc04 b2bd ca7d 8a3d
00000320: 8338 4dbd 09a9 c4bd e2bc 2b3d 28b8 793d
00000330: de47 8b3d ddc7 13bd e433 853d 365f acbd
00000340: 715a 3cbd c261 0f3c 035e 43bd ccaf 993b
00000350: d544 dabc 046b cebc 202f d03d 30db b8bb
00000360: e63f 8d3c 071f dcbc 3fc6 863d 8f12 943d
00000370: 8cb5 c6bd 1434 b5bc 3137 4b3d 88aa b1bd
00000380: 910f 163d 1e13 bfbd ed83 bf3c dc59 a4bc
00000390: d497 cd3b 9056 adbc 9478 203d 0ec8 653c
000003a0: 9299 63bd 878b cf3d 834e 4abc b59d 013c
000003b0: e9b6 833c c882 fd3c 2208 373d 1188 b23d
000003c0: 685b 95bd 28d4 7ebd 40c7 b83c bdc8 df3d
000003d0: ff59 9f3d ad67 a93d d689 ae3c 2b97 2a3d
000003e0: c6ee 22bd 1bbf 13bd 7edc 873d 2093 a3bc
000003f0: ff38 01be 9b4b 073e e01e 9abd 2fc9 e5bd

fc2.bias f4 [84]
0.3595581 0.17943154 0.06721286 0.23805988 0.045827337 -0.07186855 0.07063499 -0.067221075
0.045055073 0.108910754 0.0031222643 0.1891037 -0.06002359 0.038229264 0.042373754 0.08040351
0.117518574 -0.06224335 0.04566262 0.023487212 0.033405945 -0.042856567 0.008623306 0.101813585
-0.015150915 -0.046845604 0.037413638 -0.0022446353 0.06500774 0.17578785 0.07026251 -0.0027881376
-0.10371517 0.011205323 0.1129895 0.15930049 -0.075661 0.10684144 -0.024509989 -0.017267684
0.20416565 0.033034716 0.023451647 -0.059120245 0.025025962 -0.10011785 -0.027525833 0.29219648
-0.053015295 -0.062888525 -0.06365024 -0.06937077 0.17441344 0.06872192 0.16573498 -0.025189035
-0.09243784 0.13143061 0.1018119 -0.047711167 -0.08151143 -0.07743805 -0.012031102 0.29993853
0.089772865 -0.0028867207 0.10901252 -0.067233264 0.18184137 -0.010047146 0.19093929 -0.11695517
0.053714167 0.071419016 0.08158198 0.030567352 0.08429507 0.41212937 -0.083564416 -0.017242135
-0.02722 0.1480764 0.055262607 -0.06892547
00000000: 0018 b83e e7bc 373e e5a6 893d f8c5 733e
00000010: 72b5 3b3d d12f 93bd 14a9 903d 34ab 89bd
00000020: ab8b 383d 9a0c df3d e79e 4c3b 66a4 413e
00000030: 4cdb 75bd 4a96 1c3d 1a90 2d3d 98aa a43d
00000040: 94ad f03d e2f2 7ebd ba08 3b3d 4168 c03c
00000050: acd4 083d 5e8a 2fbd c448 0d3c a483 d03d
00000060: 8b3b 78bc 2de1 3fbd 0b3f 193d bb1a 13bb
00000070: c722 853d bb01 343e cae5 8f3d 30b9 36bb
00000080: 9e68 d4bd 8896 373c 0a67 e73d ab1f 233e
00000090: 28f4 9abd afcf da3d 2cc9 c8bc f574 8dbc
000000a0: cd10 513e 694f 073d ab1d c03c 1228 72bd
000000b0: 3f03 cd3c 960a cdbd db7d e1bc c79a 953e
000000c0: 9126 59bd b3cb 80bd 0f5b 82bd 4312 8ebd
000000d0: 7099 323e 14be 8c3d 6eb6 293e 3c59 cebc
000000e0: 0d50 bdbd bf95 063e c282 d03d c96c 43bd
000000f0: 77ef a6bd d797 9ebd 191e 45bc 8b91 993e
00000100: d6da b73d 232f 3dbb f541 df3d 98b1 89bd
00000110: a034 3a3e c99c 24bc 9785 433e 3186 efbd
00000120: 6303 5c3d 2244 923d 7414 a73d 6268 fa3c
00000130: e5a2 ac3d 9f02 d33e d223 abbd 613f 8dbc
00000140: 7afc debc 57a1 173e 0b5b 623d cc28 8dbd

fc3.weight f4 [10, 84]
-0.20198548 -0.029525565 0.054850392 -0.24917008 -0.067984 -0.015037813 -0.115286626 -0.039482914
-0.013045309 0.005602782 0.00024080175 -0.029654838 -0.059400648 0.02627105 0.022604918 0.014840036
0.12616268 -0.06281234 0.2668592 0.07138952 -0.1798717 -0.20263362 0.10824861 -0.21644764
-0.06583785 0.260588 0.11153709 -0.014379037 0.18070045 0.19516546 -0.049279545 0.02255862
0.009166559 -0.007746131 0.30287132 0.11632325 -0.013116093 0.038470954 0.14089173 0.042015653
0.121308394 -0.053291474 0.027560068 0.163295 0.033648763 0.0484906 -0.027479757 0.29029644
0.0043892455 0.09484748 -0.067940384 0.16093552 -0.04305607 0.10109042 -0.008493018 -0.00640707
-0.003646351 0.29840282 -0.047245964 -0.08584233 0.066491604 0.041997135 0.04043975 -0.21429789
0.067581065 0.13829443 0.19168344 -0.0021824546 -0.104298644 0.26649708 -0.21882388 -0.06801233
-0.023119293 -0.17529479 -0.12725538 -0.14197977 -0.06756667 -0.0042575044 -0.13159637 -0.07909649
-0.006052386 -0.1430777 0.08862046 -0.0810505 -0.43323958 0.019293323 -0.025230179 -0.011963549
0.16072391 -0.040640287 0.23136425 0.10811119 0.11022058 0.13005348 0.32390377 -0.05358992
0.24213335 0.113349825 0.09241248 -0.05406088 0.06749563 0.25268346 -0.03230056 0.28863436
-0.1006383 -0.17660028 0.010817947 -0.081806935 0.073788315 0.089578696 -0.009095427 0.05802437
-0.12139989 0.0011262405 -0.33866978 -0.0805503 -0.07424035 0.0270133 0.038951315 0.0283536
-0.07706116 0.13506687 0.0014177522 -0.03853339 0.11878479 -0.017590212 -0.11053673 0.122374386
0.09897838 -0.11767717 0.10153658 -0.21696189 -0.073653914 0.2980163 0.10181229 -0.0042613437
-0.27260703 0.15728119 -0.07500581 -0.036886107 -0.06778668 0.17867683 0.062044933 0.067123316
-0.034229994 0.052590705 0.26841158 -0.23329824 0.047911383 -0.003272736 -0.1354196 -0.028819202
-0.26814196 -0.16842858 -0.09661637 -0.02000329 0.1174229 0.05130996 -0.03131611 0.098049484
0.09529625 -0.19113456 0.22710039 0.06977249 0.05738475 -0.063195884 -0.11290916 0.021974333
0.12731394 -0.10296625 0.1739254 0.017147008 -0.26669005 -0.041902706 0.018287167 0.059218824
-0.08672734 -0.031752884 -0.13973427 0.26205674 0.14462665 -0.10741354 -0.20964101 -0.037594076
0.10179069 -0.05719847 -0.037249677 0.004564147 -0.06467336 -0.1328299 -0.07497303 0.08590715
0.016131768 0.105312735 0.29929897 -0.11183097 0.07524193 0.18552475 0.16137029 0.013845497
0.04417297 0.024469899 0.1499419 -0.06425511 -0.024364108 -0.09021501 -0.052689232 -0.07206792
-0.16718057 0.05427935 0.06265845 -0.07643066 0.049393438 0.083121315 0.054210264 0.108322866
-0.015586499 -0.16132984 -0.020975884 -0.07801498 0.061310112 0.030062543 0.2645298 0.09128391
0.075192526 -0.058404792 0.044495437 0.0058750557 -0.047468036 0.16431706 0.07532149 0.028823953
-0.021742694 -0.008242272 0.37765062 0.050857488 0.11272072 -0.03959748 0.16650726 -0.16282846
-0.1401698 0.022145446 0.11545029 0.0017499443 0.08687785 0.25779623 0.04055863 -0.029553663
0.15360266 0.030783594 -0.06181044 0.037947483 0.29121125 -0.17378376 -0.026180392 0.04897131
00000000: 48d5 4ebe 99df f1bc ceaa 603d 7126 7fbe
00000010: 323b 8bbd 2961 76bc 651b ecbd d6b8 21bd
00000020: febb 55bc 8b97 b73b ba7f 7c39 b4ee f2bc
00000030: 184e 73bd 6336 d73c f32d b93c 9f23 733c
00000040: ca30 013e c2a3 80bd c5a1 883e ab34 923d
00000050: 4930 38be 307f 4fbe 72b1 dd3d 73a4 5dbe
00000060: ffd5 86bd ca6b 853e 8f6d e43d 0d96 6bbc
00000070: 8a09 393e 74d9 473e 59d9 49bd dbcc b83c
00000080: 562f 163c 42d3 fdbb f311 9b3e e23a ee3d
00000090: e2e4 56bc b893 1d3d ec45 103e 9b18 2c3d
000000a0: 8970 f83d 2948 5abd a7c5 e13c ce36 273e
000000b0: 49d3 093d 149e 463d 3a1d e1bc bca1 943e
000000c0: a9d3 8f3b 653f c23d 5424 8bbd 48cc 243e
000000d0: 905b 30bd 7e08 cf3d 4d26 0bbc 66f2 d1bb
000000e0: 9ef7 6ebb 41c8 983e fc84 41bd 1ace afbd
000000f0: c02c 883d 3005 2c3d 27a4 253d e870 5bbe
00000100: f167 8a3d 0e9d 0d3e aa48 443e 8307 0fbb
00000110: 879a d5bd 4e72 883e 5e13 60be 0c4a 8bbd
00000120: ac64 bdbc 7a80 33be 3c4f 02be 2563 11be
00000130: 6560 8abd 8982 8bbb 33c1 06be 57fd a1bd
00000140: 1853 c6bb f682 12be a57e b53d cefd a5bd
00000150: 94d1 ddbe 080d 9e3c 85af cebc c302 44bc
00000160: cf94 243e 6e76 26bd c0ea 6c3e 6669 dd3d
00000170: 54bb e13d bd2c 053e b7d6 a53e 1b81 5bbd
00000180: cef1 773e f423 e83d c142 bd3d f16e 5dbd
00000190: 263b 8a3d ba5f 813e 984d 04bd e2c7 933e
000001a0: 741b cebd b4d6 34be c23d 313c 658a a7bd
000001b0: 541e 973d 0975 b73d fc04 15bc f6aa 6d3d
000001c0: 81a0 f8bd 5c9e 933a 2066 adbe 8ef7 a4bd
000001d0: 530b 98bd ff4a dd3c 6a8b 1f3d cf45 e83c
000001e0: 3ed2 9dbd f84e 0a3e dfd3 b93a 30d5 1dbd
000001f0: 7145 f33d 5919 90bc 1561 e2bd 6c9f fa3d
00000200: 2db5 ca3d ba00 f1bd 69f2 cf3d 422b 5ebe
00000210: ddd7 96bd 9895 983e f682 d03d bea2 8bbb
00000220: 2693 8bbe 520e 213e a59c 99bd e315 17bd
00000230: bed3 8abd 0ff7 363e d422 7e3d f377 893d
00000240: c034 0cbd 5a69 573d 3e6d 893e bce5 6ebe
00000250: ba3e 443d 667b 56bb 70ab 0abe 3f16 ecbc
00000260: e749 89be 8b78 2cbe cede c5bd f1dd a3bc
00000270: 6b7b f03d 652a 523d 5245 00bd 2bce c83d
00000280: ae2a c33d c7b8 43be 018d 683e e1e4 8e3d
00000290: 460c 6b3d d86c 81bd eb3c e7bd 8403 b43c
000002a0: 965e 023e f8df d2bd 8019 323e e277 8c3c
000002b0: 998b 88be 2ca2 2bbd f8ce 953c 708f 723d
000002c0: 1b9e b1bd 500f 02bd 8016 0fbe 4d2c 863e
000002d0: 0219 143e a1fb dbbd 22ac 56be 3ffc 19bd
000002e0: a377 d03d f148 6abd 1e93 18bd d78e 953b
000002f0: 7773 84bd 9004 08be 768b 99bd 16f0 af3d
00000300: c526 843c 34ae d73d b73d 993e a307 e5bd
00000310: 7118 9a3d 33fa 3d3e 413e 253e 39d8 623c
00000320: b7ee 343d 1975 c83c 5f8a 193e 2f98 83bd
00000330: 3d97 c7bc a6c2 b8bd aad0 57bd 5898 93bd
00000340: 6231 2bbe 0654 5e3d 1353 803d ae87 9cbd
00000350: c650 4a3d 823b aa3d 950b 5e3d 61d8 dd3d
00000360: 845e 7fbc a633 25be 9ed5 abbc 51c6 9fbd
00000370: 5020 7b3d b945 f63c 7370 873e 0ff3 ba3d
00000380: 8afe 993d dd39 6fbd d940 363d 8a83 c03b
00000390: d86d 42bd bb42 283e 2742 9a3d 3620 ec3c
000003a0: bc1d b2bc 980a 07bc 6c5b c13e f14f 503d
000003b0: 1fda e63d f830 22bd e180 2a3e 81bc 26be
000003c0: ac88 0fbe 5e6a b53c 3471 ec3d 635e e53a
000003d0: 04ed b13d defd 833e ce20 263d 861a f2bc
000003e0: 044a 1d3e e02d fc3c f22c 7dbd d26e 1b3d
000003f0: a419 953e 5ff4 31be 4378 d6bc 2496 483d

fc3.bias f4 [10]
-0.13567138 -0.4131975 0.10259415 0.2961361 0.46403554 -0.16888693 0.12058617 -0.24518345
0.41817155 -0.26308125
00000000: 70ed 0abe 9f8e d3be e21c d23d 279f 973e
00000010: 1196 ed3e b2f0 2cbe e2f5 f63d 5f11 7bbe
00000020: 951a d63e 96b2 86be
