计算机图形图像技术/实验/实验7/cifar_net.pth (torch_old, 251401 bytes, 18 tensors)

conv1.weight f4 [6, 3, 5, 5]
000000 1f 37 e2 3d 50 f3 10 3e 52 50 61 3e c1 08 1e 3e
       0.1104567 0.14155316 0.22003296 0.15433027
000010 51 aa 19 3d a0 ef 04 bd 52 82 2a 3e 11 f2 0a bd
       0.037515942 -0.032455087 0.16651276 -0.03392226
000020 9f 31 9a 3d b9 7e 90 3d a1 af 0e 3d 06 6e 09 3e
       0.07528996 0.070554204 0.03483546 0.13420877
000030 61 05 4a 3e c2 1c 5f 3d fe 8e 7b 3c 39 1c 8a bb
       0.19728614 0.054470785 0.015353916 -0.00421479
000040 b5 af 1d be fa 67 0d 3d 90 62 85 bd c1 6e fd bd
       -0.15399058 0.034522988 -0.0651294 -0.1237464
000050 6a 4f 24 be 77 bb 6c be 86 f1 6e be 63 88 22 be
       -0.16045919 -0.23118387 -0.23334321 -0.1587234
000060 67 df d7 bd 40 b1 cf bc 7e a2 85 bd 61 db 40 be
       -0.105406575 -0.025353074 -0.065251336 -0.18833686
000070 6a 7e 4c bc 04 78 70 3d fa 21 55 3c 39 da 56 be
       -0.012481311 0.058708206 0.013008589 -0.20981683
000080 3b 96 c5 bd f0 96 55 bd 5f 67 d1 bd a4 16 84 3d
       -0.09647795 -0.0521459 -0.102247946 0.06449631
000090 ae 34 04 bd ef 74 db bc a5 03 87 3d 13 23 12 3e
       -0.0322768 -0.026789157 0.06592492 0.14271192
0000a0 0b b3 92 bd c9 3e b2 3c 40 44 c5 bd 79 41 96 3d
       -0.07163056 0.021758454 -0.09632158 0.07336707
0000b0 9a d8 ab bd db 24 29 3d 8b b7 c2 bc c3 1e f5 bd
       -0.08390923 0.041294914 -0.02376916 -0.11968758
0000c0 d3 fa 06 be ea 4e 26 bd ba 4c 08 bd 13 82 82 bd
       -0.1318162 -0.040602602 -0.033276297 -0.06372466
0000d0 ee 2d dc bc 6b ae 84 bd 02 a2 6c bd 0a 92 69 bd
       -0.02687737 -0.0647858 -0.05777169 -0.05702404
0000e0 13 65 d4 3c 57 66 85 bc 71 85 0c be fa 7d fd bd
       0.025927102 -0.016284151 -0.13722779 -0.12377544
0000f0 cb d0 6e 3d b9 2f 28 3d c8 0d 2f 3e b4 8f 00 3e
       0.05830459 0.041061137 0.17095101 0.12554818
000100 49 e2 18 3e ea ab e6 bc 69 b8 2d 3e 50 c1 0a 3c
       0.14930071 -0.028158147 0.16964878 0.008468941
000110 5e 1e 09 bd 6c 36 52 3c 72 6e 5a 3d 80 6c e4 bc
       -0.033476226 0.012830358 0.053327985 -0.027883768
000120 f5 d3 d4 bc 88 14 c6 3c 3a 13 5b 3d d9 d0 9c 3d
       -0.025979975 0.024179712 0.053485133 0.07657022
000130 11 95 ac bd 3f 61 eb bc 12 54 5a 3c 44 6f f6 3d
       -0.0842687 -0.028732894 0.013325708 0.12032941
000140 3a 4d 49 bc 1a e9 09 bc 3b 30 2c be e9 91 b3 bc
       -0.012286479 -0.008417392 -0.16815273 -0.021920161
000150 a3 a6 2b 3d 0d f4 13 3c 27 76 17 be 33 89 0f be
       0.041906964 0.009030354 -0.14791165 -0.14017181
000160 52 7e 6f be d9 7c 01 3d 5c db 9a bd 1e 60 74 be
       -0.23388031 0.031613205 -0.07561371 -0.23864791
000170 9c f4 26 be 45 bb 97 bd 47 f8 43 bd 88 a5 1b be
       -0.16304249 -0.07408766 -0.047844198 -0.15199864
000180 3a f0 4d be ef a0 fb bb 82 85 0b be a3 58 4b bc
       -0.2011117 -0.007679097 -0.13625148 -0.012411269
000190 9f ed 37 3d 79 46 34 bd c7 3d 1a 3c d2 a6 9b bd
       0.044904348 -0.04401252 0.009414143 -0.07600178
0001a0 be 30 c3 3d a3 bf 0d be 74 36 bc 3c ab b0 b2 bc
       0.09530781 -0.13842635 0.022975184 -0.021812757
0001b0 3a d6 87 3d 26 ae af bd 6f 8c a7 bc 2d cb b1 3d
       0.06632657 -0.08578138 -0.020452706 0.08681331
0001c0 42 89 b5 3d ab 03 d1 3d 5d 09 13 3d 60 fd 9a bc
       0.088640705 0.10205778 0.0358976 -0.018919647
0001d0 e6 d5 a0 3d 17 0a ad 3d dd 65 30 3d a9 50 1e bc
       0.07853298 0.0844919 0.043065894 -0.009662786
0001e0 24 e3 99 bd d9 f7 05 3e ea f4 97 bd bb c4 20 bd
       -0.07514027 0.13082828 -0.074197605 -0.039250117
0001f0 0d 5b 16 3d 59 4c 8f bd 22 26 45 bb 77 79 54 3d
       0.036707927 -0.06996984 -0.0030082543 0.05187365
000200 30 82 29 bd f9 99 d9 bd ff 04 87 3a 63 53 5c 3d
       -0.041383922 -0.10625071 0.0010301172 0.05379046
000210 c8 3a 26 3e df 49 58 3d 73 00 7f bd b5 75 58 3d
       0.16233361 0.052804824 -0.062256288 0.05284663
000220 ab 7c 6e 3e b1 03 2b 3e 7f 50 66 3d a4 b3 30 bb
       0.23289745 0.16700627 0.05622911 -0.0026962543
000230 97 ce 1e 3e ad 36 1b 3e ca 0f 33 3e a0 a2 1c 3e
       0.15508495 0.15157576 0.17486492 0.15296412
000240 70 fd 25 bd 2e b4 48 3e 2c fc 4c 3e 28 34 88 3c
       -0.0405249 0.19599983 0.20018071 0.016626433
000250 d6 19 3a 3e 7e 14 a0 bd e1 45 0d bd cd b2 e8 3d
       0.18173918 -0.078164086 -0.03449047 0.113622285
000260 17 0d 08 be e9 13 03 3e f1 ab b6 3b f2 9c 22 be
       -0.13286243 0.12800564 0.005574696 -0.15880182
000270 c8 06 3e 3e 8d 3a 07 be 9f 66 8f 3d 17 46 e0 bd
       0.18557274 -0.13205929 0.07001995 -0.109508686
000280 e6 3a bb bd 57 98 80 3e 15 bf 9f bd 15 df a6 3d
       -0.09142093 0.25116226 -0.07800118 0.08148018
000290 53 86 9c bd 7b 2a c1 bd 27 36 04 3d 3e b3 20 bd
       -0.07642808 -0.09431931 0.032278206 -0.03923344
0002a0 90 58 26 bd ea e0 54 bd c9 47 9d 3d e1 46 bc 3b
       -0.040611804 -0.051972307 0.076797076 0.005745754
0002b0 1b 11 00 bd c2 a3 cf bc ea 7c ea 3d 49 58 aa bd
       -0.031266313 -0.02534664 0.11449607 -0.0831762
0002c0 b2 8f 1b 3e dc 91 8e be 43 cd 41 3d 0b 94 eb bc
       0.15191534 -0.27845657 0.047314893 -0.028757116
0002d0 87 79 6c 3d 76 f8 54 3e fa 55 39 be 6a 89 b9 3d
       0.057733085 0.20797905 -0.18099204 0.09059413
0002e0 a4 3d cc 3d 6c da b3 3d 5d 99 96 3d 2b d8 62 be
       0.099726945 0.08781895 0.073534705 -0.22152774
0002f0 a8 0c b9 3d aa 64 6d 3d e6 8f 4c bd 5b c7 a0 bc
       0.09035617 0.05795733 -0.04994192 -0.01962631
000300 a4 63 5c be 8f f6 ec 3d 2a 48 27 bd 7c f0 bc bc
       -0.21522385 0.11570465 -0.040840305 -0.02306389
000310 fb c2 06 3e e6 a2 d5 bc 52 7c cb 3c ff a4 6a bd
       0.13160317 -0.026078653 0.024839554 -0.05728626
000320 c8 fd 5c bd 97 06 f3 3d a8 7a be bc 65 39 16 bc
       -0.053952962 0.11866491 -0.023251846 -0.009168957
000330 08 d1 8f bc 90 a0 86 bd eb da eb 3d f4 ec 2e be
       -0.017555729 -0.065735936 0.11516365 -0.17082578
000340 23 51 d3 3d 01 eb d6 3c d4 4a c7 bd a8 52 27 3e
       0.1031821 0.026235105 -0.09731069 0.16340125
000350 64 e4 6d bd 6d 5d c9 3c 08 ef 9c 3c 7c 34 e5 bd
       -0.05807914 0.024580682 0.019156948 -0.11191651
000360 38 8a cd 3d 42 c2 17 be fd da 15 3d 5c ba 9c bd
       0.10036129 -0.14820197 0.036585797 -0.07652733
000370 d1 3e 90 3c 5a a7 61 3c 71 dd 8d 3c a9 e4 23 3c
       0.017608078 0.01377281 0.017317506 0.010003247
000380 22 d5 82 3c 0f ea 55 be 7b 55 ab be 0f 81 80 be
       0.01597077 -0.20890068 -0.33463654 -0.25098464
000390 c1 9c 8a be 96 a3 87 bd 51 44 8e 3d e8 78 03 3e
       -0.2707272 -0.066229984 0.06946624 0.12839091
0003a0 58 82 80 3e 24 5d 13 3e b6 9a ca 3d 11 9b a0 3d
       0.25099444 0.14390999 0.0989279 0.078420766
0003b0 db 56 08 3e ce c5 94 3d 3b 81 f7 3d 1b 45 9d 3b
       0.13314383 0.07264291 0.12085196 0.004799498
0003c0 11 46 e3 bb 6c 3d 01 bb 13 26 00 bc 20 01 5e 3c
       -0.006935843 -0.0019720448 -0.007821578 0.013550073
0003d0 bb de 28 3e 27 92 94 3c 16 93 a2 3d c2 7b 20 3d
       0.16491215 0.018136097 0.07938211 0.039180525
0003e0 cc a8 cf bd 67 42 aa 3d ee ce 79 bd 41 76 a1 bd
       -0.10139617 0.083134465 -0.06098836 -0.07883883
0003f0 50 4a 02 be d2 27 04 3d aa 94 a9 bd 59 72 b9 3d
       -0.1272366 0.032264538 -0.082803085 0.09055013

conv1.bias f4 [6]
000000 6a 68 16 be ab 0c 56 bc 79 2d d5 bb 73 06 16 bd
       -0.14688268 -0.013064544 -0.006505665 -0.036627244
000010 87 b2 3f be 68 0c 2d be
       -0.18720447 -0.16899264

batchnorm1.weight f4 [6]
000000 ca 69 66 3f 1a c9 75 3f d7 41 77 3f 2a 61 7a 3f
       0.9000517 0.9600998 0.9658484 0.9780451
000010 31 9b 81 3f 60 ea 8b 3f
       1.0125486 1.09309

batchnorm1.bias f4 [6]
000000 e9 86 d3 3e a0 57 99 3e ab f3 06 be 80 77 67 3d
       0.41313866 0.29949665 -0.1317889 0.05651045
000010 71 af 20 be d3 6b bc bb
       -0.15691926 -0.0057501583

batchnorm1.running_mean f4 [6]
000000 fa 42 f4 bd ed 0a 4c be 8d 38 02 bb 9d 8e 6c bd
       -0.11926837 -0.19926043 -0.0019870133 -0.057753194
000010 8c d7 30 be 30 8c 29 be
       -0.17269725 -0.16557384

batchnorm1.running_var f4 [6]
000000 e0 ff 26 3e 7c f4 a3 3e b1 ea c1 3c 7b 8f 3f 3e
       0.16308546 0.32022464 0.02367148 0.18707077
000010 7a ae 55 3d 01 5d 96 3e
       0.052168347 0.2936783

conv2.weight f4 [16, 6, 5, 5]
000000 b7 27 86 bd ec 9f 38 3b 27 b5 17 3c 42 a2 0d 3d
       -0.06550544 0.0028171493 0.009259499 0.03457857
000010 8d 77 44 bd 36 64 9f 3d 68 a9 99 ba 89 7b 52 bd
       -0.047965575 0.077827856 -0.0011723461 -0.051387344
000020 44 d8 d5 bd 33 32 28 bd 24 ec 23 be 4a b3 18 bd
       -0.1044164 -0.0410635 -0.16008049 -0.03728036
000030 6e dd 8d 3d 38 95 35 3d 5f 80 f9 bd b7 5f 15 be
       0.06927 0.04433176 -0.12182688 -0.14587294
000040 5b 9f bc 3d 0d d5 d1 3d 88 f5 e4 3c c2 46 d0 bd
       0.09210082 0.10245714 0.02794911 -0.10169746
000050 8a a1 18 3d d5 a0 1d 3e 3b 83 a4 bc f4 96 32 be
       0.03726343 0.15393384 -0.020082107 -0.17440397
000060 5f eb c0 bd 18 d2 5e bb 6e 17 3c 3d 8e 3d 19 3e
       -0.094198935 -0.0033999737 0.04592078 0.14964887
000070 d0 86 06 3e b7 76 12 3e ab f7 94 bd d0 23 26 bd
       0.13137364 0.14303099 -0.072738014 -0.040561497
000080 24 70 9c 3d 76 36 02 3e 61 03 35 3b a7 98 6a 3c
       0.076385766 0.12716088 0.0027620422 0.014318622
000090 4a 60 b8 3c 03 9b c3 bb 8d f9 3d bc bf c7 70 3d
       0.022506852 -0.0059694066 -0.011595142 0.058784243
0000a0 6c 1f 02 be 2c d1 ce bc 96 c9 e6 bd e7 5d b5 bc
       -0.12707299 -0.025246225 -0.11268918 -0.022139503
0000b0 4e c6 95 3d 92 54 c1 bd 36 d4 e8 bd a8 f7 ef bc
       0.07313214 -0.09439959 -0.11368601 -0.029292896
0000c0 7b 27 84 3c 48 fb 30 3e f3 cf eb bc 69 56 fd 3d
       0.016132107 0.17283356 -0.028785681 0.12369997
0000d0 87 78 96 3d 91 17 69 3b b5 bd c5 3d 1c 8f a6 bd
       0.073472075 0.0035567025 0.09655324 -0.08132765
0000e0 9c c2 ba bd 3a 73 55 bb ac 9e 5b bc e4 71 c9 bd
       -0.0911915 -0.00325699 -0.01340453 -0.09836176
0000f0 8d 60 03 be d9 e5 1c be c8 12 33 be ab 59 e7 bb
       -0.128298 -0.15322055 -0.17487633 -0.00706025
000100 9f 50 22 bd 55 1d 05 3c df 5c 39 3c 55 61 cd bc
       -0.039627668 0.008124669 0.011313646 -0.025070826
000110 48 c5 bd bd 8e 77 dc 3d e0 a1 25 3d 60 09 a1 3d
       -0.09266144 0.10764991 0.04043758 0.07863116
000120 58 78 2d 3b 8d 72 0b 3d 29 ab 89 3c 1f 5a a7 bc
       0.0026469436 0.03404479 0.016805248 -0.020428715
000130 4b e6 6b 3c 8e e3 b7 bd 1a 36 5d 3d 6a bb 3c 3d
       0.014398168 -0.089789495 0.054006673 0.04607717
000140 3b e0 55 3b 62 26 0d 3d a8 1b c8 3d ae 15 07 3e
       0.0032634872 0.034460433 0.097709 0.13191864
000150 09 c1 72 bc 8a 0c 3a bd 35 8b 1b 3d 66 93 26 3e
       -0.014816531 -0.045422114 0.037974555 0.16267166
000160 f0 97 20 bd cf 67 7f bd 37 35 51 3e c1 c5 eb 3d
       -0.0392074 -0.06235486 0.20430456 0.11512328
000170 83 1a 01 be f6 d5 84 be 76 c6 df bd 79 ce e0 3d
       -0.1260777 -0.2594449 -0.10926525 0.109768815
000180 1f 75 5b be da 93 85 be 18 4e 90 bd bc 3c e5 bd
       -0.21431397 -0.26089364 -0.07046145 -0.11193225
000190 39 20 05 3c aa 7c a5 3d a8 2e 1c 3e 0d 95 72 3d
       0.008125358 0.080804184 0.15252173 0.059224177
0001a0 12 1e 27 3e f1 e1 16 bd 23 05 14 3d 0d 68 9c 3d
       0.16320065 -0.03683657 0.03613771 0.076370336
0001b0 38 e7 e7 3d 75 e8 1e 3e 7b 4f 52 3d d8 0d 0b bd
       0.11323398 0.15518363 0.05134533 -0.03394875
0001c0 49 80 e5 3d fb cb 6e 3c 62 4e b8 3d 96 59 ae bd
       0.11206109 0.014575 0.08999325 -0.08513181
0001d0 2b 13 9c 3c 6d ba 5e bd aa cf 07 3e b7 34 30 3e
       0.019052109 -0.05437701 0.13262811 0.17207609
0001e0 18 06 cb bd 98 f7 40 be ec 71 cc 3c 65 de fa 3d
       -0.09913272 -0.1884445 0.024956666 0.1224945
0001f0 5e 48 e1 bb 6c 0f 91 bd 48 a1 a5 bc 68 46 a9 3d
       -0.006875082 -0.070830196 -0.020218506 0.08265382
000200 32 5a a6 3c a4 00 54 be 1d 4d 1e 3d ce 8a 88 3d
       0.02030668 -0.2070337 0.03864776 0.066671
000210 4c df 7e bd b8 78 2a be eb 5b 2c 3d e9 d8 f6 3c
       -0.06222467 -0.16647613 0.042079847 0.030132728
000220 36 b0 72 bd 2f c6 91 be eb 5d e6 bd 0c 6c ad 3d
       -0.05925008 -0.28471515 -0.11248382 0.08467874
000230 a0 32 69 be aa f1 ca be 0c 6f a3 bd ba 2b 1c 3e
       -0.22773218 -0.396375 -0.07980165 0.15251055
000240 4d 06 01 3e a4 89 9e be a9 2d bd 3d 02 92 36 3e
       0.1260006 -0.30964386 0.092372246 0.17829135
000250 a5 58 4a 3d 27 01 c1 3d 08 20 06 bd 51 37 36 bd
       0.049400944 0.09424048 -0.03274539 -0.044486348
000260 5e f4 1a 3d 31 92 10 3b c1 18 aa 3d a5 8b 71 3d
       0.037830703 0.0022059793 0.08305503 0.058971066
000270 ed d8 5a bd 80 eb 1f bc e3 6e d2 3d a2 cf 15 3e
       -0.053429533 -0.009760737 0.10275056 0.14629987
000280 f7 e0 bf 3d fd 54 a9 bd 1b b6 bc bd 59 2d 5d 3d
       0.093690805 -0.08268163 -0.09214421 0.053998325
000290 af 54 11 3e 25 c3 23 3e cc be 11 3e 63 43 0f 3e
       0.1419246 0.1599241 0.1423294 0.1399055
0002a0 a0 17 34 3e 06 d6 72 39 ba fe 4f 3d 64 bb 43 3e
       0.17587137 0.00023158648 0.050780036 0.19114453
0002b0 92 24 84 3e c9 d8 f6 ba 1b fc 0f be 34 a5 d2 3c
       0.2580915 -0.0018832918 -0.14061014 0.02571354
0002c0 42 9d d6 3d 26 0e 18 3d fe 5e 9d bb 46 22 8f 3c
       0.10479213 0.037122868 -0.0048025837 0.017472398
0002d0 56 a4 92 3d 57 60 aa 3d e8 6a 06 3e 38 ea 87 3d
       0.07160251 0.083191566 0.13126719 0.066364706
0002e0 51 85 b8 3c 58 b6 58 3d d5 7d 65 3d e4 37 1e 3e
       0.022524508 0.05290827 0.056028206 0.15451008
0002f0 c4 4b ba 3c 73 25 a7 bd 81 03 45 3c 55 cc 6e 3d
       0.022741206 -0.0816144 0.012024761 0.058300335
000300 8e 86 fa 3c 56 8d ba bd 5b 5d 3c be 2d 41 64 bc
       0.030581739 -0.09108989 -0.18394987 -0.013931555
000310 20 c7 a8 bd 47 98 00 be e1 df bd bd 80 03 e8 bd
       -0.08241105 -0.12558089 -0.09271217 -0.113287926
000320 52 4e 91 3a 59 65 cf 3c 1d 94 83 bc 3a 42 57 bd
       0.0011085963 0.025316881 -0.016061837 -0.052553393
000330 74 ae d0 bd 43 cf 30 3b 8a 6f 27 bd 7b 7d a8 bd
       -0.10189524 0.0026979006 -0.040877856 -0.082270585
000340 a4 ec c9 bc 4d 3f 5d 3d 61 9c ae 3d bf a3 47 3d
       -0.024648972 0.054015446 0.08525921 0.048740145
000350 55 2a 4b 3d 67 f3 43 3d 98 40 97 3d 3d 67 1c 3e
       0.049600918 0.04783955 0.07385367 0.15273757
000360 b9 9a 10 3e 9b 1f 8f 3d 0e 75 01 3d 32 20 32 3e
       0.14121522 0.0698845 0.031605773 0.17395094
000370 0e 81 77 3d 1b 69 ef 3d 71 f7 50 3e 85 a9 64 3e
       0.06042581 0.11689969 0.20406891 0.22330292
000380 6a f7 89 3d b2 39 5b 3c cc 3d 3b 3c 20 25 fc bc
       0.067366436 0.013380455 0.011428308 -0.030779421
000390 98 da 1f bd f1 23 e1 3d 55 a6 e0 3c 52 22 95 bd
       -0.039026827 0.109931834 0.027423063 -0.07281937
0003a0 3f 27 81 3c 35 63 a2 bc 8f ae 90 3d 54 13 89 bd
       0.015765784 -0.019822696 0.070645444 -0.0669314
0003b0 d4 d8 87 bd eb cb be bd b6 e3 f0 3d 3d af 9d 3a
       -0.066331536 -0.09316238 0.117621824 0.0012030374
0003c0 1e ba 7b bd 39 18 c0 bd 1e 2e a8 bd 9c 08 c5 3d
       -0.061456792 -0.0937962 -0.08211921 0.09620783
0003d0 2d 5d 07 3c c6 ac 01 be 1b a1 b9 bd d1 34 78 3d
       0.008261961 -0.12663564 -0.090639316 0.060597245
0003e0 87 5f 7f 3d c9 38 b7 bd 78 9a 29 3d 8a 34 c8 bd
       0.06234696 -0.08946378 0.04140708 -0.09775646
0003f0 2b e2 a9 bd 8e 3a b9 bb 3d bb 43 be e5 a2 1f bd
       -0.08295091 -0.005652732 -0.19114394 -0.038973708

conv2.bias f4 [16]
000000 d1 c9 d5 3c d1 f1 37 3d 17 56 52 bd bc 43 64 bd
       0.02609721 0.04490835 -0.051351633 -0.05572866
000010 d1 ae e9 bd d9 ed 96 3c 79 ed e4 bc 93 96 15 bd
       -0.11410297 0.018423961 -0.027945267 -0.036520552
000020 f1 b6 b1 bd f5 1f 18 be 95 61 26 bd bd 97 e5 bd
       -0.086774714 -0.1485594 -0.040620405 -0.112105824
000030 74 44 3b 3d 58 6d 0d be 7b 92 dc b7 e0 cb 08 3d
       0.04571958 -0.13811243 -2.6294254e-05 0.033397555

batchnorm2.weight f4 [16]
000000 0e d9 7d 3f ab 2b 79 3f 2e f5 83 3f 88 77 71 3f
       0.99159324 0.9733226 1.0309198 0.94323015
000010 29 66 79 3f 28 e6 67 3f 77 a0 79 3f 68 7f 83 3f
       0.9742151 0.90585566 0.97510475 1.0273256
000020 c4 2e 66 3f b9 cd 85 3f a9 b0 74 3f 4c 63 62 3f
       0.8991511 1.0453407 0.9558206 0.88432765
000030 1b 55 78 3f 62 e6 83 3f 44 26 7f 3f 47 09 6f 3f
       0.9700486 1.0304682 0.99667764 0.9337353

batchnorm2.bias f4 [16]
000000 fa 6c cb be 99 8e c0 be 87 5a b0 be a6 29 d2 be
       -0.3973158 -0.37608793 -0.34444067 -0.410474
000010 57 b3 c9 be fd 6d 82 be 93 54 c5 be b6 6a a1 be
       -0.39394638 -0.2547454 -0.38541088 -0.31526726
000020 0c ef a6 be e3 7e cd be ea a6 3b be 2d 98 70 be
       -0.32604253 -0.4013587 -0.18325391 -0.2349555
000030 ed c0 ac 3d 68 8b c8 be f3 b9 d9 be 3c e2 83 be
       0.08435235 -0.3916886 -0.4252468 -0.2575854

batchnorm2.running_mean f4 [16]
000000 70 89 1b bf 53 0e ca 3f aa 14 0d be 6e 62 b1 bf
       -0.6075659 1.5785621 -0.13777414 -1.3858163
000010 72 c1 bb bf 6b fd 3f bf da 23 7c be de ca fa bf
       -1.466841 -0.7499606 -0.24623051 -1.959316
000020 38 fe af bc a6 b9 07 bf 1d e8 6a c0 e1 1e c0 bf
       -0.021483526 -0.5301765 -3.670417 -1.5009423
000030 f5 a1 e1 bf dc a7 e2 bf 45 f9 11 c0 e4 8a 51 3e
       -1.762755 -1.7707477 -2.2808392 0.20463139

batchnorm2.running_var f4 [16]
000000 51 1b 09 40 b7 4e 0e 40 4e d5 f6 3f fe 59 cc 3f
       2.1422923 2.2235544 1.9283845 1.5964963
000010 8d 53 e2 3f 30 60 f7 3f d3 71 ad 3f e8 93 45 40
       1.7681748 1.9326229 1.3550361 3.0871525
000020 d1 10 e9 3f aa bb 1a 40 f2 fe 55 40 be c3 ce 3f
       1.8208257 2.417704 3.3436856 1.6153486
000030 c1 4e 1f 40 f8 00 23 40 bb 45 2d 40 7e 05 e7 3f
       2.4891818 2.5469341 2.707381 1.8048551

fc1.weight f4 [120, 400]
000000 e3 67 c0 ba cb 5d 5b bc 82 17 55 bd 88 7e 0b bc
       -0.0014679398 -0.013389061 -0.052024372 -0.008514054
000010 dd db c3 bc db 6c 0f bd c7 79 f8 bd c2 a0 e5 bc
       -0.02390855 -0.035015922 -0.12132602 -0.028030757
000020 99 ed 34 bd 42 4a 1e bd 2c 8b 0b be cb 3c 11 bd
       -0.044171903 -0.038645037 -0.13627309 -0.035458367
000030 c2 86 0d 3d cf d6 36 bd 05 ad 5b bc 58 63 86 3c
       0.034552343 -0.04463845 -0.01340795 0.016404793
000040 82 7c 4e 3d 0a 38 8e 3d b0 47 fc bc 19 51 02 bd
       0.05041171 0.06944282 -0.030795902 -0.031815622
000050 cc 66 76 3d 70 ac 02 3d 36 0a 0b bc 67 45 5b 3d
       0.06015663 0.03190273 -0.008486321 0.053532984
000060 d6 07 44 3d cd 53 28 3b 7d 34 f4 bc 69 f6 70 bc
       0.047859035 0.0025684715 -0.029810185 -0.014707186
000070 80 47 22 bd b8 42 89 3c 54 35 62 bd c5 e5 3b bd
       -0.03961897 0.016755447 -0.05522664 -0.045873422
000080 33 c1 d0 bd e0 05 0c bd 53 b2 82 bd c4 bb 96 bd
       -0.101931 -0.03418529 -0.06381669 -0.07360032
000090 93 71 43 bd 44 38 92 3c 47 f1 55 3c 54 62 14 bd
       -0.047715735 0.017849095 0.013058013 -0.036226586
0000a0 c7 8b 8b bd 4f a5 27 bd ca cc 62 3d 26 2c ec bc
       -0.0681377 -0.040929135 0.055371083 -0.028829645
0000b0 68 e8 c5 bc db 01 1e bd 49 2f 26 bc 67 a0 80 3d
       -0.024158671 -0.03857599 -0.01014311 0.06280594
0000c0 b8 1a aa 3c 7c 2a f7 bb 7b 2b 4a 3d a2 6f 0b bc
       0.020764694 -0.0075429063 0.049357872 -0.008510502
0000d0 be bd ba 3d 3c 12 1a bc 7e 53 05 bd 8b b8 99 3b
       0.09118222 -0.0094037615 -0.032550327 0.0046911887
0000e0 04 67 7e 3c c9 d3 2d 3d 18 29 e5 bc be ee e7 bc
       0.0155274905 0.042438302 -0.027973697 -0.028312083
0000f0 90 0a 2d bd 84 6c de 3c 88 26 31 bd 99 13 f7 3c
       -0.0422464 0.027151354 -0.043249637 0.030160712
000100 c3 e3 80 bd 5b a2 9b bd a9 8d aa 3c 14 08 fd bc
       -0.06293442 -0.07599326 0.020819502 -0.030887641
000110 ae 26 d0 bc 69 d2 7a 3c 28 ee f2 ba 52 12 18 3d
       -0.025409069 0.015308955 -0.0018534111 0.037126847
000120 45 d6 70 bd f6 c2 27 3c e1 69 84 3b e8 06 ea bb
       -0.058798093 0.010239353 0.004040942 -0.0071419366
000130 27 98 f3 bc da 97 9e bc 60 e0 4e bc fb f7 5b bd
       -0.029735638 -0.019359518 -0.012626737 -0.05370329
000140 2e 61 19 bc b5 eb 2a bd a3 29 bd bd b4 aa 30 3d
       -0.009361548 -0.041728694 -0.09236457 0.043131545
000150 58 e4 63 bc b6 1a 18 bd c0 2e 34 3d a8 13 6f 3c
       -0.013909422 -0.03713485 0.043989897 0.014592089
000160 56 1e 5a bd 62 66 d4 3d ce 6f e3 bc 22 c6 c0 bc
       -0.053251587 0.103710905 -0.027763274 -0.023531977
000170 e9 ec 93 bc 32 81 bd bd 43 e1 a3 3c 2c 83 dc bc
       -0.018057304 -0.09253158 0.020004874 -0.026918016
000180 d2 cc 9b bc 1c f2 1f bd d5 dc c3 bc af 08 67 3c
       -0.019018564 -0.039049253 -0.023909012 0.014101191
000190 ef 74 97 bd 1f 25 ec bd 3f 66 94 bd 3b 07 b2 bd
       -0.0739535 -0.11530518 -0.072460644 -0.08692785
0001a0 1a ac 19 bd f9 ad 51 bd d1 0f a0 bb 1f c8 93 3b
       -0.037517644 -0.051191304 -0.004884698 0.0045099403
0001b0 7a c7 22 bd 42 28 2f bd a8 6e a0 bd a6 79 80 bd
       -0.039741017 -0.042763002 -0.07833606 -0.062732026
0001c0 bf 61 cf bd 98 b0 80 bc 90 11 01 bd 48 cb 8f bd
       -0.101260655 -0.015709206 -0.03151089 -0.07021195
0001d0 7b cf 98 bd 3d 10 8e bd ae 33 08 be 26 28 04 be
       -0.07461449 -0.06936691 -0.13300964 -0.1290594
0001e0 ce af 19 be 86 d3 fe bd c9 80 04 be 8c 2a bb bd
       -0.1500847 -0.12442689 -0.12939753 -0.091389745
0001f0 c1 71 9f bd cc b5 ba bb f4 81 b3 bd b5 4c 4e 3d
       -0.07785369 -0.0056979414 -0.08765021 0.050366122
000200 cc 1c 22 bd 28 bb 4e 3c ec df 0e bd 08 b9 61 bd
       -0.039578244 0.012617864 -0.034881517 -0.0551081
000210 94 fb d3 3b 58 96 84 bb 87 fa a2 bd 41 40 74 bd
       0.0064691994 -0.0040462427 -0.079579405 -0.05963159
000220 4b 75 cd ba c1 c3 5c bc 99 60 df bc cc 86 34 3d
       -0.0015675215 -0.013474406 -0.027267741 0.044073865
000230 7f c7 c1 bc 94 e3 7b 3d d9 45 39 bd e2 42 9e bd
       -0.023654697 0.061496332 -0.045232628 -0.07727601
000240 a4 a8 24 bd e4 e4 bb 3c a9 bd b0 3c d2 dd b3 bd
       -0.04019989 0.022936292 0.021574812 -0.08782543
000250 41 f8 3b bd 82 bf 7a bd 31 41 a5 bd ae 2f a4 3a
       -0.04589105 -0.061217792 -0.08069075 0.0012526417
000260 31 0a eb 3c fd 7a 7d 3d 84 ea 14 3d 2a 66 1b bd
       0.028691383 0.06188487 0.036356464 -0.037939228
000270 8a f5 12 3d 43 aa aa 3c 27 82 47 bb 59 f8 e5 3a
       0.035878696 0.02083314 -0.0030442567 0.0017545327
000280 9f ea 9e bc 30 00 99 3b 9c 50 7b bb f0 6c 50 bd
       -0.019398985 0.004669212 -0.0038347607 -0.05088514
000290 70 d1 3e bc 93 6c 59 bb b6 35 e1 bc ae d8 aa ba
       -0.0116466135 -0.0033176288 -0.027491432 -0.0013034546
0002a0 a5 a2 c2 3c 1c fd d5 bc 65 39 e3 3c 84 10 74 bc
       0.023759196 -0.026121669 0.027737329 -0.014896516
0002b0 76 17 2c bd bb df 6f bd 4f 33 36 bd c1 75 91 bd
       -0.04201456 -0.058562975 -0.044482525 -0.07102538
0002c0 54 b7 05 3d c9 6a 68 3c 8d a8 cf bc 81 b0 b3 bc
       0.03264554 0.014185616 -0.025348926 -0.02193475
0002d0 0d 5a b2 bc 51 de 6a 3d 5a 0a d7 bc 6a e8 c0 bd
       -0.021771455 0.057340924 -0.026250053 -0.094193295
0002e0 d2 d1 9a bd e9 fd 3c 3c 09 7e d6 bc f5 71 86 bd
       -0.07559551 0.011535146 -0.026183145 -0.06564704
0002f0 5b a7 47 bd 57 e1 fd bd fa bc 29 3c 29 14 7b bc
       -0.048743587 -0.12396496 0.010359997 -0.015324631
000300 81 46 3d 3a cb 45 79 bd a1 4f 68 bd a8 1e 32 3d
       0.0007220284 -0.060857575 -0.056716565 0.043486267
000310 4a 93 7a bc e3 bf 5e 3d ee 8b 15 3c 8e c3 53 bd
       -0.0152939055 0.054382216 0.0091276 -0.051700167
000320 ba 69 5c bb ec e5 70 3b 93 3a 2b bd a8 f6 e6 bc
       -0.0033632354 0.0036758138 -0.041803908 -0.028193787
000330 8c da 35 bd 3d c5 2c 3c 9d b9 df bc 71 91 93 bd
       -0.044397876 0.010545072 -0.027310187 -0.07205475
000340 91 28 8e 3c 6c 14 a2 bc 94 41 3c 3d ee e8 4e 3d
       0.017353328 -0.019785129 0.045960978 0.050515108
000350 37 d6 02 3d 07 25 31 3d 82 5e 8b 3c 8a 7c 5f 3d
       0.031942572 0.043248203 0.017012838 0.05456213
000360 63 bf 7a 3c 65 22 5a 3d c5 94 4e 3d 54 c6 2a bd
       0.015304419 0.053255457 0.050434846 -0.041693047
000370 86 ef 4d bd 3b 2d c2 bc 3b 63 29 bd 01 17 39 bd
       -0.050277255 -0.023703208 -0.0413544 -0.045187954
000380 ab e7 db 3b 20 b1 3f 3d a9 bf 8e bd 20 be cd bd
       0.0067109666 0.04679978 -0.0697015 -0.10046029
000390 f8 68 38 bd 3b 8e cb bd 98 9b 12 bd 89 16 4a bd
       -0.04502198 -0.09939238 -0.035792917 -0.049337897
0003a0 df cb a0 3d de 27 64 3d 5d 33 f1 3c 17 26 76 3d
       0.07851385 0.055702083 0.029443437 0.06009492
0003b0 13 e2 53 3d 2b d4 a1 3c bd 5c 25 bd 08 28 51 bd
       0.051729273 0.01975449 -0.040371645 -0.051063567
0003c0 e8 e8 c8 b8 09 61 51 3d 72 f2 97 bc bf ed 4e 3b
       -9.580125e-05 0.05111793 -0.018548224 0.0031574813
0003d0 30 e6 cc bc a9 d9 9e bd 1c c1 dc bc 74 7f 2c 3c
       -0.025012106 -0.07756359 -0.02694755 0.010528434
0003e0 d1 83 e0 bc bc 2c b5 bc 3f 8f 6b bd 58 15 a7 bd
       -0.027406605 -0.022116058 -0.057509657 -0.08158368
0003f0 8e 68 2d bc 00 0d 42 bd f3 18 eb bc 7c 07 88 bd
       -0.01058401 -0.04737568 -0.02869842 -0.066420525

fc1.bias f4 [120]
000000 f9 f4 2f 3c 41 d8 81 bc 26 e5 da 3d a8 9b 37 3e
       0.010739558 -0.015850188 0.10688238 0.17930472
000010 26 e2 ac 3d 83 d3 8f 3c a9 10 02 3d a9 f2 93 bd
       0.08441572 0.017556911 0.03175417 -0.07224018
000020 fc 74 8e bd 36 4e 8d bd 78 27 1a 3e c4 71 1d be
       -0.06955907 -0.06899683 0.15054119 -0.1537543
000030 19 6e a2 bc 29 fe f3 3d a5 de 54 3e d4 30 44 3e
       -0.01982789 0.119137116 0.20788057 0.19159251
000040 8c aa 72 3d 8c 77 36 bc 36 83 23 bc 4c 1e c0 bc
       0.059244677 -0.011136901 -0.009980014 -0.023451947
000050 8d 25 e2 3d b2 50 c5 3d e9 d6 43 bc b8 6a d8 3d
       0.110423185 0.09634532 -0.011953094 0.1056723
000060 2b 58 9e 3d 5e 4a 36 3c d3 d0 d9 bc ff ad 10 3c
       0.077316605 0.011126129 -0.026588833 0.008830546
000070 aa 93 11 3d 39 66 92 bc 5e 72 41 b9 b1 da 1c 3e
       0.035541214 -0.01787101 -0.0001844852 0.15317799
000080 c6 6d 36 bc 22 13 dc bb 06 19 3b bd 7a 24 42 bd
       -0.01113457 -0.006716148 -0.04567816 -0.047398068
000090 48 ab 47 bd a7 9f 02 3e b6 3e 82 bd 92 f2 53 3d
       -0.04874733 0.12756215 -0.063596174 0.051745005
0000a0 bb 03 8e bc c2 12 37 3e a2 fc bc bd ce 9c c0 3d
       -0.017335763 0.1787825 -0.092278734 0.09404908
0000b0 3b 00 09 bd a8 0e 53 3c 03 0d 11 3a db 42 e3 bc
       -0.033447485 0.012881912 0.000553325 -0.02774184
0000c0 c4 e9 2b bd 6f 80 2d bd a4 d7 fc bd d5 c3 a7 3d
       -0.041970983 -0.042358812 -0.12345818 0.08191649
0000d0 09 e1 5a 3d 02 30 c7 3c 27 6d e7 bd a1 9a 60 bd
       0.053437266 0.024314884 -0.11300116 -0.054834966
0000e0 2e b1 e8 bd 90 7c 7c bd d4 a9 2a 3b 0e 07 52 3d
       -0.11361919 -0.06164223 0.0026041167 0.05127626
0000f0 ba 0b 55 bd 62 e8 c0 bd 5b 71 b4 3c a0 fd e0 3d
       -0.052013136 -0.094193235 0.022026708 0.10985875
000100 ef 39 2e bd b5 93 45 3e 72 a9 12 bd 99 05 92 3c
       -0.04253572 0.19294627 -0.035806127 0.017824935
000110 4d 17 77 bc a2 bf 00 3e cf 46 95 bd 1b ac 40 be
       -0.015081239 0.12573102 -0.07288896 -0.18815653
000120 ea 68 6f 3e dc fd 75 bd d2 dd f7 bb d2 24 eb 3d
       0.23379865 -0.060056552 -0.007564285 0.11481632
000130 4d 32 29 3e 8e 23 b2 bd b3 64 23 3e 06 1b 6a bd
       0.16523094 -0.08698188 0.15956382 -0.057154678
000140 15 f2 23 3d 95 9d c3 bd 1a bc b7 3c 32 7f 17 bd
       0.04002579 -0.09551541 0.022428561 -0.036986537
000150 1a fa e5 bc ca bb b3 bd 1c 9f 15 bd 26 f9 44 3d
       -0.02807336 -0.08776052 -0.03652869 0.04808917
000160 61 86 7b bd 87 2d 2c bc b3 0d 18 bd 8b 7d 07 bd
       -0.06140745 -0.010508901 -0.03712244 -0.03307871
000170 06 6f 46 3d dc 1c d4 bd 46 b4 78 bb d1 0f 07 be
       0.048445724 -0.10357067 -0.0037949248 -0.13189627
000180 5e e8 4c bd 00 f6 89 3e 41 d3 c1 bc 5b 18 74 3c
       -0.05002629 0.26945496 -0.023660304 0.014898385
000190 c6 31 18 3d df 6f 44 be 93 97 94 bc b7 69 32 3e
       0.037156843 -0.191833 -0.018138682 0.1742314
0001a0 1b f9 79 bd 3f 85 a5 bc 45 b4 0f bd e9 3d a3 bc
       -0.06102858 -0.020205138 -0.035084028 -0.019926982
0001b0 20 5b c1 bd a3 d5 5f bd 41 a4 0c 3e 1c 96 62 3e
       -0.09441209 -0.0546471 0.13734533 0.22127575
0001c0 64 18 96 3d 40 94 22 bd fc c8 f0 3d e1 96 99 bc
       0.07328871 -0.039692163 0.11757085 -0.018748702
0001d0 08 af 63 3e 29 fa 12 3e 51 6d 93 bd 4c 03 46 3e
       0.22234738 0.14353241 -0.07198585 0.19337195

fc2.weight f4 [84, 120]
000000 50 d5 42 3d bd e5 0e 3d cc e9 9f 3a 78 d9 09 3e
       0.047566712 0.034887064 0.0012200414 0.13461864
000010 2b c7 05 bd 34 8c 9a bd 5d 1d 91 bd e5 b3 da 3d
       -0.032660645 -0.07546273 -0.07085679 0.106788434
000020 ac 34 f1 bc 5d 3a 01 be 3e fa 11 be 32 ec 2c bd
       -0.029444061 -0.1261992 -0.14255616 -0.04221744
000030 23 8b 78 bb 34 51 18 3e 9d 19 d7 3b eb d2 23 3c
       -0.0037924729 0.14874727 0.0065643326 0.009999017
000040 78 3c 96 bd ef 8d 2a 3c f9 b1 dd bc fa 6e 25 bc
       -0.07335752 0.010409816 -0.027062403 -0.01009726
000050 7a ec d0 bc d4 e0 3b 3e 52 0c 1f bd 2f 10 98 bd
       -0.025503386 0.18347484 -0.03883011 -0.07424962
000060 d5 62 22 3d 46 34 a9 3d b3 d0 33 be 6b 1e 71 bc
       0.039645035 0.082619235 -0.17560081 -0.014716725
000070 72 fc 15 3e 96 14 1e bb 8f 53 5e bd c4 53 d8 3d
       0.14647081 -0.0024121157 -0.054278906 0.10562852
000080 83 ca 68 3c 5d 3d f4 3d a1 cc d3 3c 51 04 9b bd
       0.014208439 0.119257666 0.02585441 -0.07569183
000090 66 e8 7d bd 80 57 79 bd b8 93 e6 bc cb eb 7f bc
       -0.06198921 -0.060874462 -0.02814661 -0.015620182
0000a0 a5 ec 91 3d fb 96 29 3d 3e d1 6f bd 46 0d 86 3c
       0.071252145 0.04140375 -0.05854916 0.016363751
0000b0 64 14 a6 3d 2c 7b 4c 3d db 62 d3 bc 00 1b a3 bc
       0.08109358 0.049922153 -0.025803974 -0.019910336
0000c0 99 ff d8 3d 3d 2f 91 3c e1 7c 1a be 0b 2e 3a bd
       0.105956264 0.01772272 -0.150867 -0.045454066
0000d0 9a d5 6a 3d a2 48 e3 bc 2f e9 7f 3d 05 b5 50 3d
       0.057332613 -0.027744595 0.06247824 0.050953884
0000e0 b8 c5 fe bd ba d2 7b bd 0a b6 16 3b 03 c3 67 3d
       -0.124400556 -0.06148026 0.0022996687 0.056582462
0000f0 eb 21 c2 bc 7a 60 f1 be b1 5c 6c bd 4a 95 5d bc
       -0.023697814 -0.47143918 -0.057705585 -0.013524363
000100 1e 21 b7 3d dd 8d 85 3d a1 ae a1 bd 47 78 37 be
       0.089418635 0.06521199 -0.07894636 -0.17916976
000110 8b 09 4c 3d 7b 85 d3 3d d9 d8 41 3d f6 89 c1 be
       0.04981379 0.10328194 0.047325943 -0.37800568
000120 06 a4 7e 3d c5 a0 4d bc 96 e5 8f be 88 c6 bf bc
       0.062168144 -0.0125505375 -0.28104848 -0.023410097
000130 6b a7 1e 3d 67 39 84 bd d6 41 cc 3c c0 56 97 bd
       0.03873388 -0.06456261 0.024933737 -0.07389593
000140 96 29 76 3d 08 3c 38 ba 9a af 4d 3a fc 62 3d 3d
       0.060098253 -0.00070279883 0.0007846296 0.046236977
000150 1d d8 99 be 32 73 95 bb ec 37 a0 3b d3 2f 0c 3e
       -0.30047694 -0.0045608515 0.004889479 0.13690118
000160 27 f7 10 bd 98 27 d4 3d a7 63 91 3d 69 54 86 3d
       -0.035391953 0.103591144 0.07099085 0.06559069
000170 9f 64 8c 3d bd fb de 39 bd 5e 1e bd f0 95 4d bd
       0.068551295 0.000425307 -0.03866457 -0.05019182
000180 67 7a 25 bc 9c 82 0c 3e 07 62 7a be 00 4a ba 3d
       -0.010099984 0.13721699 -0.24451457 0.09096146
000190 c8 17 31 bb 4c f8 67 be 68 a4 47 bd 66 b0 e9 3d
       -0.0027022231 -0.22653311 -0.048740774 0.114105985
0001a0 68 e4 8d be 4d 8e 2d 3d e2 e0 58 3e 1e ad 3a 3e
       -0.27713323 0.042372037 0.21179536 0.18230101
0001b0 2e c0 8d be 98 14 86 3d e9 5b 0b 3e aa 43 0b 3e
       -0.27685684 0.06546897 0.1360928 0.1360003
0001c0 0d 2b 2a bd 0f 88 19 3d f2 dd d1 3c 31 cd fe bc
       -0.041544963 0.03748327 0.025618527 -0.031103702
0001d0 23 52 83 3d 7c 72 9d 3d 9a d0 12 3e 39 12 42 3e
       0.06412151 0.07687852 0.14337388 0.18952264
0001e0 1f bc 8c 3b c2 ce 90 bc ac 98 62 3c ed fd 0d be
       0.0042948867 -0.017676715 0.013830345 -0.13866396
0001f0 02 27 c9 3d 7f cd 10 be 7b d5 0b bd 0b fe 97 3b
       0.09821893 -0.1414089 -0.034139138 0.0046384386
000200 4e 06 ad 3c 58 64 26 3d 40 fb 7c be 39 69 c3 3d
       0.02112117 0.04062304 -0.2470522 0.09541554
000210 be 7a 8c 3d cf 10 a4 bd 55 3c 30 bb 36 cf 7c 3d
       0.06859349 -0.080110185 -0.002689143 0.06172105
000220 64 c1 3c 3d 43 3a 29 bd 66 3a 86 bd 01 fd 9e bc
       0.04608287 -0.04131533 -0.06554107 -0.019407751
000230 a7 72 b1 bc d3 ea 6a 3d dd 1c 19 3d 41 ec 88 be
       -0.021661116 0.057352852 0.03738104 -0.26742747
000240 02 76 2e 3d e2 43 6a bd f3 a2 ac bd f7 15 3b 3d
       0.04259301 -0.057193644 -0.084295176 0.045675244
000250 99 46 a4 bd f5 12 8e 3d 5a 9d 7b 3d 3d 50 db bc
       -0.08021278 0.069372095 0.06142936 -0.026771659
000260 82 ae b4 bc ba bc ec 3d 58 6b 4a bd 70 29 64 bd
       -0.022055868 0.11559434 -0.049418777 -0.05570358
000270 ed 23 5c be e9 11 f2 bc 9d 06 b4 bd b4 b1 62 be
       -0.2149808 -0.029549556 -0.08790324 -0.22138101
000280 7d 78 61 bc aa 34 e7 bb 1f 04 3c 3e 90 ff d7 bc
       -0.013761637 -0.0070558386 0.18360947 -0.026366979
000290 69 5a 8d 3d 4c b5 c6 bd 65 5a db 3d 5f 21 b5 3c
       0.0690201 -0.097025484 0.10710601 0.02211064
0002a0 10 e9 49 bd f5 a0 95 bc bf 6f e7 3d fb 47 16 be
       -0.04929453 -0.018265227 0.11300611 -0.14675896
0002b0 0b dc 6b bd 7d 65 5e bd c9 e6 32 bb 6c 72 9f 3c
       -0.057582896 -0.054296006 -0.0027298203 0.01946374
0002c0 0f 86 85 be a1 fc 52 3d aa 14 61 3d 79 17 02 3e
       -0.2607884 0.051510457 0.054951347 0.12704267
0002d0 4a 90 bb 3d ff 77 1c be 1d 62 d0 bb 3e 96 13 bd
       0.0915838 -0.1528015 -0.0063593523 -0.036031954
0002e0 8f f3 03 3e 0c 07 0f be 7d 5b 79 bd 91 d8 9a 3c
       0.12885879 -0.13967532 -0.060878266 0.018902095
0002f0 63 a1 9c bd 97 4a 0b be d2 80 ea 3d 38 00 31 bd
       -0.076479696 -0.13602673 0.11450352 -0.0432131
000300 d1 24 d7 bc af 14 49 3d 0d 08 8d bd c6 77 09 bd
       -0.026262673 0.04909199 -0.06886301 -0.03356149
000310 e5 4b ab bd ff 3c 04 be b4 35 0d bd 31 d6 a1 bb
       -0.08364085 -0.12913893 -0.034475043 -0.0049388637
000320 13 c3 f9 3d 55 6b d5 3d 7f d2 85 be 55 5e da bc
       0.121954106 0.104208626 -0.26137158 -0.02665631
000330 e3 13 30 bd 9e 92 d6 bc 66 0d 7a bc 93 7b 88 3d
       -0.042987715 -0.02619296 -0.0152619835 0.06664195
000340 91 c1 9e bd 27 31 d2 3d 17 1d 63 3c 80 d9 0a 3d
       -0.077517636 0.10263281 0.013861916 0.03389883
000350 e2 cc 4f 3c c1 2a 04 be 5e f5 74 3d 22 9f 40 be
       0.012683125 -0.12906934 0.059804313 -0.18810704
000360 95 aa 0f 3d 4a 56 68 3d 6a 89 9d 3d 1f e2 ad 3d
       0.03507479 0.056722917 0.07692225 0.08490395
000370 69 b9 3b be 80 f8 1c be 86 28 05 3e af b8 62 3d
       -0.18332447 -0.1532917 0.1300374 0.05535191
000380 14 a8 20 be 9e 44 1a bd 65 bc dd 3c 36 93 66 bc
       -0.15689117 -0.037663095 0.027067373 -0.014073184
000390 40 1c a0 bd bb 7a e0 3d 34 75 88 3d f3 d6 81 be
       -0.07817888 0.10960909 0.0666298 -0.25359306
0003a0 f7 d5 20 3d 37 f1 a9 bd 7d ec 9c be 92 3e 96 3d
       0.039266553 -0.08297961 -0.30649176 0.07336153
0003b0 c3 76 09 3c 7a d0 b3 bd 45 0e a5 3d 00 a6 f6 3c
       0.008390131 -0.08779998 0.08059362 0.030108452
0003c0 5b b3 81 bd 88 b8 01 3d 9a 73 33 3e 25 06 b3 bc
       -0.063330375 0.031670123 0.17524567 -0.021853516
0003d0 bb 11 d1 3d 18 72 df 3c 04 ab 68 bd 09 de d1 bd
       0.1020846 0.027276084 -0.05680372 -0.10247428
0003e0 75 f7 05 be 3a a6 a1 bd fb 40 00 be 15 5a a9 bc
       -0.13082679 -0.07893033 -0.12524788 -0.020672837
0003f0 db 24 03 3d 84 35 3c 3e d5 9e 4d 3d 5d 2c e5 3d
       0.03201757 0.1837979 0.050200302 0.11190102

fc2.bias f4 [84]
000000 fe a6 9d 3e b8 f9 a1 3d de 09 ca 3e 71 47 61 3e
       0.30791467 0.07908958 0.39460653 0.21999909
000010 ee 7b 0c 3e c5 eb 05 3f 23 80 40 3e 22 13 8f 3e
       0.1371915 0.5231288 0.1879888 0.27944285
000020 88 46 34 3e f1 cc fb 3d 6b 5a 78 3d 91 86 8c 3e
       0.1760503 0.12294949 0.060633104 0.27446416
000030 99 68 7e 3e c8 4d 5f 3e 7b 3f bb 3e 0f c7 fc 3e
       0.24844588 0.21807015 0.3657187 0.4937062
000040 22 ab b7 3e be 1c 92 3c 15 9d 49 3e 50 8c 17 3e
       0.3587275 0.017835971 0.19688828 0.14799619
000050 a0 a0 70 3e 37 fd 3d 3e 27 29 ff 3e 73 e2 7f 3e
       0.23498774 0.18553625 0.49836084 0.24988727
000060 e7 80 1b 3e f7 f6 a1 3e 4b 58 97 3e a0 94 71 3e
       0.15185891 0.31633732 0.2955955 0.23591852
000070 38 8e c7 3e 37 7a a5 3e c2 f8 33 3e 32 56 30 3e
       0.38975692 0.32319805 0.17575362 0.17220381
000080 e6 47 44 3b 00 28 6d 3e 70 ed 4c 3e f2 16 92 bd
       0.0029950081 0.2315979 0.2001245 -0.07133283
000090 a0 e4 23 3b 47 a2 9e 3e ff 00 1b 3f 05 e3 26 3e
       0.0025008097 0.30983183 0.60548395 0.16297539
0000a0 d2 59 b9 3e 2a cc e8 3d 7d 88 65 3e 6e 22 78 3e
       0.3620134 0.11367066 0.22415347 0.24231884
0000b0 18 4d fc 3e f5 31 f1 3d 1c 17 d1 3e f7 0a dc 3e
       0.49277568 0.11777107 0.40837944 0.42977116
0000c0 e3 d5 e5 3e 7a 82 68 3c d7 cd 08 3f 85 ab 7c 3e
       0.44889745 0.014191264 0.53439087 0.24674805
0000d0 ff 79 e8 3e 6f 32 b3 3d ce d5 c6 3d da e1 76 3e
       0.45405576 0.08749854 0.09708749 0.24109593
0000e0 d4 16 ee 3e a5 b8 7e 3e 49 16 53 3e 2b 42 50 3e
       0.4650179 0.24875124 0.2061397 0.20337741
0000f0 39 09 26 3e b7 60 a5 3e fe 12 f6 3e 7f f0 e8 3e
       0.16214456 0.3230035 0.48061365 0.45495984
000100 6d 6e 1a 3e ca 95 4e 3e 75 82 a2 3e 46 c8 09 bd
       0.15081187 0.20174327 0.31740156 -0.03363826
000110 be 87 d2 3e 69 21 4e 3e 7b c1 a9 3e f6 54 f2 3e
       0.41119188 0.20129932 0.33155426 0.47330445
000120 1c 30 9c 3e d0 e0 5b 3e 56 75 41 3e 8a 63 d7 3e
       0.30505455 0.21472478 0.18892416 0.4206813
000130 97 42 7c 3e 24 09 e4 3d e3 88 b3 3e 77 45 10 3e
       0.24634777 0.11134556 0.35065374 0.14088999
000140 12 92 88 3e a4 93 6f 3e 70 99 cb 3e bf 2c 7c 3e
       0.26673943 0.23396164 0.397655 0.24626444

fc3.weight f4 [10, 84]
000000 85 bb 55 bd 10 90 6b bd 19 6c 89 bc 89 54 d2 bd
       -0.052180786 -0.057510436 -0.016775178 -0.1027003
000010 32 c6 01 3e f1 62 79 be 6d 49 0f be 67 6a 85 bc
       0.12673262 -0.2435415 -0.13992853 -0.016286088
000020 2a 97 b3 3d 97 75 84 bd 2c 09 5f bd d5 6d f3 3d
       0.08769067 -0.06467741 -0.054452106 0.11886183
000030 eb 5d 99 3d 23 39 b8 bb f0 73 88 bd 51 08 56 bd
       0.074886166 -0.0056220456 -0.06662738 -0.052254025
000040 51 53 5c 3d 89 fc d7 3d 5b 22 c2 bd dd da 60 bb
       0.053790394 0.10546214 -0.09479209 -0.003431014
000050 9f 21 29 be bd dc 0b be e6 de b5 bd 72 30 59 3d
       -0.16516732 -0.13658424 -0.08880405 0.053024717
000060 81 48 18 be 77 99 a8 3d 8a 3a 06 3d 1e 6e dc 3b
       -0.14871408 0.08232396 0.03277067 0.006726994
000070 07 8e 80 bd 0b 94 94 3d 20 80 f3 3d 6f 6a 44 3e
       -0.062770896 0.072547995 0.11889672 0.19181226
000080 71 b4 68 3c 9a e8 ba 3d aa 82 88 3d 0c ad 01 be
       0.014203177 0.091263965 0.06665547 -0.12663668
000090 b2 b1 f4 3d a2 72 75 bd 54 41 5e be 9b 54 9f 3c
       0.11947955 -0.059923775 -0.21704608 0.019449523
0000a0 0a 1b 9e bd 34 61 71 3c cc d2 2d 3e 44 6c 70 bd
       -0.07720001 0.014732648 0.16974944 -0.058697
0000b0 7c 8b 54 bd 9f fb ce bd d5 35 07 3e b2 06 a2 bd
       -0.051890835 -0.10106587 0.13204129 -0.07911433
0000c0 9a 3e 92 bd c3 c1 f9 3c 1a a4 6f be fe dc cd bd
       -0.071408466 0.0304879 -0.23402444 -0.100519165
0000d0 5b 61 97 3d 28 13 38 be 35 4b 9f 3d 26 d8 b3 3d
       0.07391616 -0.17976058 0.077780165 0.087814614
0000e0 8c 16 51 be 4a 0b 67 bd a8 b8 2c bd 81 c0 fd 3d
       -0.20418757 -0.05640725 -0.04216829 0.12390233
0000f0 a2 f4 1c be 98 f4 80 bd 3a dd e1 bd 32 94 96 bd
       -0.15327695 -0.062966526 -0.11028524 -0.07352485
000100 82 22 27 be 70 53 0d bc d6 3e b3 3d 4a 23 1b 3d
       -0.16321757 -0.00862585 0.087522194 0.03787545
000110 f3 b0 ff bd a3 f4 ea 3c 6f 74 2d be 46 ae 83 bc
       -0.12484922 0.028681105 -0.16938947 -0.016074311
000120 54 0f 12 3d 3a d7 f3 3d 40 47 0d 3e 26 ab ed bd
       0.03565915 0.119062856 0.13796711 -0.116049096
000130 b2 28 c6 bd b3 d9 09 3e b0 5a 14 be 20 85 df 3d
       -0.09675731 0.13461952 -0.1448772 0.109140635
000140 92 1d 09 be 1f 53 15 3d aa 86 07 be c1 ab 63 3d
       -0.13390186 0.036456224 -0.13234964 0.05558372
000150 ff 18 2f 3e 7d 02 33 3e ac a4 3a 3d 3e ef 8d 3d
       0.17099379 0.17481418 0.0455672 0.069303975
000160 d3 89 25 3d e0 c0 1b be 91 b4 24 3e c3 76 18 bd
       0.040414643 -0.15210295 0.16084506 -0.037222635
000170 32 d7 6a bd fe ea e4 3d 3c ca bc 3d c4 3d e0 bd
       -0.057334132 0.11177634 0.09218261 -0.10949281
000180 bd 4f 57 be dd 0a b0 bd 62 4e 7c 3d 78 ee 00 be
       -0.21026511 -0.08595822 0.06159819 -0.12590969
000190 53 0a 9e 3c d6 74 7c 3d c4 2d dd bd fe 01 43 be
       0.019292032 0.06163486 -0.10799745 -0.19043729
0001a0 30 73 1c bd dd a7 0b 3c 3f 6c bc bd a5 63 d2 bd
       -0.03819579 0.008523908 -0.09200334 -0.10272912
0001b0 9d fd 1a 3d 52 a1 69 be 89 ff 73 3d a5 b9 d3 3c
       0.03783952 -0.22815445 0.05956987 0.025845358
0001c0 5a de b6 3d 5a 16 9c bd 06 da 4b bc ab a0 43 3d
       0.08929129 -0.07621451 -0.012442118 0.047760647
0001d0 6e 24 ef 3b 2f 4f 8a 3d 76 ff 30 bc 05 f8 03 3e
       0.007298044 0.06753384 -0.010803094 0.1288758
0001e0 29 f9 30 be 1f e7 9e 3c f0 1a 38 be 04 41 d0 bd
       -0.17282547 0.019397317 -0.17979026 -0.10168651
0001f0 63 8b 94 bd 31 5a e2 3d b3 ef 90 bd 25 ea a8 bd
       -0.072531484 0.11052359 -0.07076969 -0.082477845
000200 3c dd 3d bd 65 00 13 3e b2 12 89 be 53 9e 8f be
       -0.046353564 0.14355619 -0.26772076 -0.2805048
000210 5a b2 2b be 9c be 13 3e 99 08 f2 bd 05 33 82 be
       -0.16767254 0.1442818 -0.11818046 -0.2542955
000220 14 6d 22 be 1a 9e 99 bb 17 12 04 3e fd b0 3c 3e
       -0.15861923 -0.0046880366 0.12897526 0.1842689
000230 99 7f 94 be d2 f2 12 bd 90 65 0d 3e cd 83 5e be
       -0.290036 -0.035876103 0.13808274 -0.21729966
000240 ea 02 ee 3d 46 d5 e0 3c f6 67 db be 3d 99 28 be
       0.116216496 0.027445447 -0.42852753 -0.16464706
000250 bf cd d6 b9 fd c3 13 bd a5 69 3a be e7 b3 3b be
       -0.00040970554 -0.03607558 -0.18204363 -0.18330346
000260 f4 34 61 bc e9 2e 0e 3e b1 8b 86 be b6 db 45 be
       -0.013745535 0.13885082 -0.2627845 -0.19322094
000270 4d f6 40 3b 8c 41 21 be c0 0b 44 3d c8 ad f4 bd
       0.0029443682 -0.1574766 0.04786277 -0.11947209
000280 e3 47 8e bb 01 04 aa bb e0 42 85 3d 31 ab a4 3d
       -0.0043420657 -0.0051884656 0.06506896 0.08040465
000290 b1 32 54 be 6d b1 cd 3c 5a 37 6f be c9 ea 6a 3d
       -0.20722462 0.025109017 -0.23360959 0.057352815
0002a0 f6 12 54 be 24 23 d5 bd ad 52 70 3b 9d d9 76 bd
       -0.20710358 -0.10407093 0.0036670372 -0.060266126
0002b0 98 e6 e5 bc 35 9c 66 3d cd bf 51 bd 57 4b d1 bd
       -0.028064057 0.056301314 -0.051208306 -0.10219448
0002c0 0e 9a 64 3b 3a 82 03 3d 4c 60 45 3d 11 4a c7 bd
       0.0034881863 0.032106616 0.04818754 -0.09730924
0002d0 c9 4f 14 3e a4 f5 d8 bd 53 a3 2f be 95 5c 96 3d
       0.1448356 -0.10593727 -0.17152147 0.07341877
0002e0 24 ef bd bd eb a9 23 b9 08 86 fb bd 48 61 c9 3d
       -0.09274128 -0.00015608191 -0.12281424 0.09833008
0002f0 d4 12 5c be ec d8 f0 3c 94 8c 59 3c 8e 11 21 3e
       -0.21491557 0.029400311 0.013278145 0.15729353
000300 03 a7 d1 bd 98 e0 db 3d 86 d1 5b bd eb e7 d5 bd
       -0.10236933 0.10736197 -0.053666614 -0.104446255
000310 65 12 11 3e ca 2a db bc 6a 04 07 3e 45 2a ac 3d
       0.14167173 -0.026753802 0.13185278 0.084065
000320 76 0d 30 be 71 bc c4 bd f3 96 04 be 4c 50 35 bd
       -0.17192635 -0.09606255 -0.12948208 -0.04426603
000330 6b a0 20 3e 1e ec 6f 3d 11 c2 e0 bc 4b 7e 0b 3d
       0.15686195 0.05857479 -0.027436288 0.03405599
000340 7d 33 70 ba 62 4f ab bd 9a 5e 13 bd 3d ec f6 bd
       -0.0009162946 -0.083647504 -0.03597889 -0.120567776
000350 fa 1d f5 3d 10 7e af bd f7 9d 1c bc 32 78 33 3b
       0.11968608 -0.085689664 -0.009559146 0.0027384874
000360 0c c6 82 3d 7a af 10 3e bd 36 9f 3d 12 9b 5b 3d
       0.06385431 0.14129439 0.077741124 0.053614683
000370 a0 08 3a bd f5 55 87 3e a1 ab 0b bc 41 4f 6c bd
       -0.04541838 0.26432768 -0.008524806 -0.05769277
000380 2b fd 58 3c c3 9d 13 be c4 9e 2a be e8 71 c1 3c
       0.013243954 -0.1441565 -0.16662127 0.023613885
000390 c8 7b 92 bc ce 63 04 bd 82 ff 29 3d d9 a6 5e bd
       -0.01788129 -0.032321744 0.041503437 -0.054358337
0003a0 6b bb 06 3d 1c 4c df 3d b4 f0 c9 bc 40 2d 3a 3e
       0.03289358 0.109031886 -0.024650909 0.18181324
0003b0 3c a8 bf bd b6 73 94 bd 2c 19 fc bc d4 a2 09 bd
       -0.0935826 -0.072486326 -0.030773722 -0.03360255
0003c0 00 8a bc 3d 4d 09 d4 3d 97 7a 8b bd 11 1f 4e bd
       0.09206009 0.103533365 -0.068104915 -0.050322596
0003d0 82 8f 33 3d 2c 75 e3 3d 3c 15 e4 3d 7a 12 91 bd
       0.04383803 0.11106333 0.11136863 -0.07083602
0003e0 77 46 4b 3e ac 3e 8a bd be dd ea 3d d1 bb ff bd
       0.19851099 -0.06750235 0.11468075 -0.12486995
0003f0 f7 f7 23 3d 1f d5 4d bd d2 0e f2 bd e5 21 3e 3d
       0.0400314 -0.050252076 -0.11819233 0.046419043

fc3.bias f4 [10]
000000 12 04 87 bd 01 bd 54 bd 19 a2 31 be 19 32 41 3e
       -0.06592573 -0.05193806 -0.17346992 0.18866767
000010 db d6 c6 3d ad 87 06 be cd 81 2b bd 98 42 1d 3b
       0.09708949 -0.13137694 -0.041871835 0.0023995992
000020 c0 f9 a0 bd 2d a1 0e 3d
       -0.07860136 0.034821678
