人工智能原理/实验/cifar10/cifar_net.pth (torch_old, 249562 bytes, 10 tensors)

conv1.weight f4 [6, 3, 5, 5]
-0.0532613 -0.10190443 -0.15130804 0.083626404 -0.109070264 -0.0714731 -0.10634901 -0.017670555
-0.021193705 -0.03219361 -0.1109938 -0.10512214 -0.04883875 -0.09822249 -0.049125344 -0.063138746
0.052435152 -0.088655755 -0.094425306 -0.09722543 -0.17621568 0.010876209 -0.054366354 0.07313272
-0.104287535 -0.20968679 -0.052472405 -0.08671552 -0.17116335 -0.104444735 -0.09460546 0.060058773
-0.09616645 -0.12826096 -0.09139506 -0.061954748 0.08500105 0.044336073 -0.11840063 -0.1608584
-0.061777484 -0.082507424 0.07054777 0.031930648 -0.017369458 -0.07429616 -0.055181596 -0.08940303
-0.10748636 -0.06428443 0.18405293 0.13959539 0.20987915 0.08631762 0.13561578 0.16931288
0.20847313 0.22302155 0.110418126 0.037201095 0.18351823 0.40786427 0.23749574 0.21676898
-0.09711552 0.23383825 0.21156815 0.2066448 0.19517052 -0.04036527 0.13737404 0.22437426
0.2827521 0.10610916 -0.031406786 0.15166046 0.22536424 0.22272356 0.057723295 0.17835599
-0.13163073 0.101321414 0.41413632 -0.0783501 -0.13866423 -0.47228736 0.18698283 0.4223606
0.06487165 -0.13753502 -0.46757197 0.08324948 0.49704117 0.14391136 -0.007641558 -0.23576751
-0.26821613 0.07122129 0.14160709 -0.04615035 -0.23866476 -0.21387203 -0.09874271 -0.12787788
-0.27121383 -0.40364143 -0.08776527 0.2649896 -0.15141533 -0.16621175 -0.5925751 -0.015809584
0.29659536 0.10661507 -0.33306047 -0.44792035 -0.21525952 0.25197178 0.124521576 -0.2358696
-0.24478766 -0.2126466 -0.0071647605 0.06484722 0.047026496 -0.084834106 -0.076108575 0.17839299
-0.08937708 -0.13163355 -0.18769725 0.16339722 0.35684815 -0.06802089 -0.095322 -0.27531067
0.18826416 0.55402035 0.0027042767 -0.21355653 -0.35658413 -0.0019438132 0.52573043 0.10606075
-0.09340926 -0.12043373 -0.15630578 0.25127593 0.20795774 -0.017960578 0.1823311 0.07611846
-0.0007446981 -0.0414474 -0.28048858 -0.062317967 -0.17532676 -0.24383418 -0.1676729 -0.17449997
-0.17082706 -0.2715954 -0.24238993 -0.1777415 -0.12560166 -0.033972878 -0.0009172577 0.11630402
0.16872336 0.042884056 0.024693156 0.10570329 0.18731457 0.18418209 0.23023915 0.075043544
0.016330536 -0.073707916 -0.058551967 -0.21405827 -0.10092425 -0.14840537 -0.21822225 -0.30804902
-0.18413165 -0.20908748 -0.12927978 -0.27858463 -0.13326742 -0.16788973 -0.22936945 -0.038058884
-0.06981495 0.030649725 -0.040199365 -0.116463855 0.09236824 0.0075945994 0.13601983 0.05115648
0.15047741 0.16875266 0.2025356 0.061276708 -0.13228823 -0.0047072805 -0.0075206575 0.06032611
-0.1413508 -0.11641541 -0.0132085895 -0.13618365 -0.017161341 -0.10892035 0.12683888 -0.12269546
-0.023844015 0.15258089 0.10763097 0.069856346 0.09334884 0.17811485 0.31028974 0.19432347
0.25645682 0.06495774 0.03434228 0.20485894 0.031072067 0.20439042 -0.29273552 -0.42492083
-0.29453322 -0.31635258 -0.27054507 -0.12624407 -0.41252792 -0.2910579 -0.4218481 -0.42009988
-0.048676245 -0.27250832 -0.07073999 -0.21129261 -0.11809397 -0.20933117 -0.20338657 -0.20801997
-0.22591862 -0.33147526 0.07541731 0.32055527 0.33267155 0.41910398 0.33231714 -0.08781552
00000000: 8528 5abd 45b3 d0bd 7ff0 1abe 5244 ab3d
00000010: 3b60 dfbd 7d60 92bd 82cd d9bd d7c1 90bc
00000020: 6c9e adbc 72dd 03bd b850 e3bd 474a d7bd
00000030: 240b 48bd df28 c9bd a837 49bd e34e 81bd
00000040: 3ec6 563d 2691 b5bd 0e62 c1bd 201e c7bd
00000050: e271 34be 2032 323c 41af 5ebd 9cc6 953d
00000060: b494 d5bd 22b8 56be 4eed 56bd e897 b1bd
00000070: 7245 2fbe 1fe7 d5bd 82c0 c1bd 3000 763d
00000080: eaf2 c4bd d756 03be 552d bbbd 43c4 7dbd
00000090: 0815 ae3d be99 353d 087c f2bd 10b8 24be
000000a0: 630a 7dbd a7f9 a8bd 597b 903d b6c9 023d
000000b0: 654a 8ebc 9628 98bd 1906 62bd f018 b7bd
000000c0: cf21 dcbd 8ea7 83bd 5f78 3c3e 18f2 0e3e
000000d0: 8fea 563e 4bc7 b03d ddde 0a3e 5b60 2d3e
000000e0: fb79 553e c35f 643e e622 e23d 2d60 183d
000000f0: 34ec 3b3e 96d3 d03e 1532 733e b0f8 5d3e
00000100: 80e4 c6bd 4b73 6f3e 52a5 583e b29a 533e
00000110: c8da 473e 0e56 25bd c8ab 0c3e 5ec2 653e
00000120: e2c4 903e c24f d93d 67a4 00bd e14c 1b3e
00000130: e2c5 663e a511 643e 436f 6c3d f4a2 363e
00000140: 35ca 06be 9a81 cf3d ad09 d43e 0476 a0bd
00000150: fffd 0dbe a6cf f1be 6d78 3f3e a63f d83e
00000160: 6ddb 843d fbd5 0cbe 9865 efbe b47e aa3d
00000170: 2e7c fe3e 805d 133e 0966 fabb 0a6d 71be
00000180: a053 89be 78dc 913d 7301 113e 2608 3dbd
00000190: 8964 74be 4501 5bbe 9e39 cabd 6bf2 02be
000001a0: 8adc 8abe 17aa cebe 47be b3bd b8ac 873e
000001b0: 9f0c 1bbe 6a33 2abe 00b3 17bf 1a83 81bc
000001c0: 59db 973e 0059 da3d e786 aabe d155 e5be
000001d0: fe6c 5cbe 7202 813e 2b05 ff3d cd87 71be
000001e0: 9ea9 7abe 08c0 59be 5ec6 eabb 9fce 843d
000001f0: db9e 403d 81bd adbd d0de 9bbd a7ac 363e
00000200: 550b b7bd f2ca 06be b533 40be 9a51 273e
00000210: cdb4 b63e 894e 8bbd 2e38 c3bd 85f5 8cbe
00000220: 52c8 403e 47d4 0d3f 3c3a 313b 90ae 5abe
00000230: 3292 b6be 8cc7 feba 4596 063f 6136 d93d
00000240: 5b4d bfbd f6a5 f6bd 9f0e 20be 3da7 803e
00000250: e0f2 543e 1022 93bc 01b5 3a3e ffe3 9b3d
00000260: d837 43ba c0c4 29bd 339c 8fbe 2041 7fbd
00000270: dc88 33be abaf 79be 72b2 2bbe 1fb0 32be
00000280: 4aed 2ebe 8d0e 8bbe 1135 78be de01 36be
00000290: b99d 00be 2527 0bbd 1f74 70ba cd30 ee3d
000002a0: d1c5 2c3e 31a7 2f3d 4d49 ca3c f77a d83d
000002b0: 64cf 3f3e 3b9a 3c3e d0c3 6b3e 6eb0 993d
000002c0: 9ec7 853c 2df4 96bd 30d4 6fbd 1732 5bbe
000002d0: 60b1 cebd 94f7 17be a775 5fbe 9ab8 9dbe
000002e0: 028d 3cbe 071b 56be eb61 04be a5a2 8ebe
000002f0: 4177 08be 49eb 2bbe d3df 6abe a2e3 1bbd
00000300: 24fb 8ebd 2215 fb3c 17a8 24bd 9a84 eebd
00000310: 8f2b bd3d 1edc f83b c848 0b3e 7589 513d
00000320: c016 1a3e 7fcd 2c3e 7e65 4f3e 49fd 7a3d
00000330: 9176 07be 883f 9abb d96f f6bb 8318 773d
00000340: 44be 10be 346b eebd d768 58bc ba73 0bbe
00000350: f195 8cbc a211 dfbd 0de2 013e c247 fbbd
00000360: 8654 c3bc 2a3e 1c3e a06d dc3d d810 8f3d
00000370: ad2d bf3d bd63 363e 4cde 9e3e bbfc 463e
00000380: 4f4e 833e 9008 853d 7eaa 0c3d 8bc6 513e
00000390: d98a fe3c b94b 513e 6ee1 95be 398f d9be
000003a0: 0fcd 96be f7f8 a1be e284 8abe 2046 01be
000003b0: dc36 d3be 8b05 95be 79fc d7be 5517 d7be
000003c0: be60 47bd 3686 8bbe 21e0 90bd 175d 58be
000003d0: 40db f1bd e95a 56be 9244 50be 3003 55be
000003e0: 3657 67be 20b7 a9be 6474 9a3d d21f a43e
000003f0: ed53 aa3e cc94 d63e 7925 aa3e a0d8 b3bd

conv1.bias f4 [6]
0.32453102 -0.10833014 -0.40684164 0.04239214 0.058992773 -0.44619852
00000000: ee28 a63e 31dc ddbd 8c4d d0be 61a3 2d3d
00000010: 68a2 713d 2274 e4be

conv2.weight f4 [16, 6, 5, 5]
0.016436858 0.11156488 0.115109384 0.14638616 0.07629754 0.010590015 0.029135054 -0.013112224
-0.049875073 0.036174875 0.036797043 -0.05223524 -0.010419365 -0.017298184 0.017087001 -0.008463827
-0.027907547 -0.0018297757 -0.09745694 -0.053020813 -0.15189384 -0.14634983 -0.13833892 -0.25315067
-0.1828186 -0.1785214 -0.015283708 -0.008157267 0.020976037 -0.012396113 -0.13438433 -0.013459647
-0.099939734 0.030812312 -0.0777803 -0.06528779 0.066158004 -0.08380102 -0.103537366 -0.07774801
-0.035835814 -0.0791737 -0.04955619 -0.025512826 -0.093856856 -0.17597878 -0.06975467 -0.13196166
-0.07389918 -0.03155027 -0.029823609 -0.01839592 -0.10420944 -0.030069666 -0.120448254 -0.04027601
0.08499001 -0.047488205 -0.028184503 0.06847018 -0.020974081 0.070679605 0.00039865993 -0.034560822
-0.019329222 -0.12038305 -0.015559253 -0.03282814 -0.12271923 -0.088719085 -0.08369395 -0.03559651
-0.019844435 -0.044076882 0.10952639 -0.11757107 -0.19353843 -0.14576894 -0.19612555 -0.06637711
-0.0491923 0.0069554867 0.0045690294 -0.006924164 0.026799442 -0.024270637 -0.14131483 -0.113039196
-0.04972283 -0.08469748 0.025623616 0.12863636 0.06425731 0.05669576 0.0026675828 0.21578674
0.22042502 0.2926493 0.22538641 0.25140202 0.018323995 -0.09833958 0.0753306 -0.04014907
-0.0444971 0.13919131 -0.016874645 0.0745354 0.011164496 -0.12686734 0.06010406 0.012023423
-0.05962112 -0.034305975 -0.08790532 -0.068024196 -0.19009279 -0.09659258 -0.059323084 -0.07251025
-0.03047834 -0.11883056 -0.18524511 -0.16366105 -0.13975829 -0.07158288 -0.012350134 0.0040994827
-0.100011796 -0.0032436224 0.016857078 0.05768182 -0.016894909 0.011225871 0.001514036 0.047339935
0.021289151 -0.011845605 -0.017977154 0.01693302 0.0392461 0.11859773 0.12676094 0.00851227
0.10192639 0.1770642 0.13686652 0.2238346 0.14253426 0.09466364 0.04803766 0.098257035
-0.009506255 -0.045667894 -0.04060383 -0.029700337 0.0074468656 -0.07358833 -0.08712942 -0.15892647
-0.033583518 0.07845134 0.048372798 0.052505832 -0.09320219 -0.046932667 0.042085808 0.01099938
-0.01386917 -0.02086179 -0.08493553 0.0768901 0.0014744817 -0.07551942 0.053659134 -0.060255885
-0.042673618 0.02032762 -0.018600605 0.06841073 -0.1823933 0.24995631 0.030344509 0.031875283
0.077194124 -0.16732119 0.4930235 -0.16455092 0.14402881 0.027337959 -0.05696626 0.38598025
-0.2851205 0.09938351 -0.060132854 -0.09864526 0.17105012 -0.5017988 0.017324094 -0.098894306
-0.11261699 -0.09476474 -0.06750302 -0.03757129 -0.021376517 -0.052683704 -0.041038893 -0.019124672
0.087912984 -0.015048021 -0.06768894 0.05149423 -0.14093843 0.009727941 -0.15450653 0.085299745
0.03890654 0.045049887 0.11985535 -0.045587525 -0.025612893 -0.053350035 -0.049423646 -0.02430306
-0.09018583 0.045478754 -0.01215455 0.010845378 0.06491824 -0.10352403 -0.029526269 0.025984252
-0.083701715 0.034370836 -0.067360155 -0.0887409 0.022380305 -0.031764306 0.07573551 0.07127511
0.05070987 0.066264234 0.080045104 0.012515854 0.07004062 -0.07326345 -0.09519485 -0.11924077
-0.052952837 -0.112487756 0.070641994 -0.051644314 -0.08138456 -0.07772564 -0.033933144 0.049535427
00000000: 97a6 863c 217c e43d 78be eb3d 41e6 153e
00000010: e241 9c3d be81 2d3c a3ac ee3c a7d4 56bc
00000020: ce49 4cbd 1b2c 143d 7fb8 163d 9ef4 55bd
00000030: fcb5 2abc ecb4 8dbc 0afa 8b3c ddab 0abc
00000040: 5e9e e4bc 16d5 efba 8197 c7bd 5a2c 59bd
00000050: 0f8a 1bbe bbdc 15be b8a8 0dbe f79c 81be
00000060: cd34 3bbe 50ce 36be 8568 7abc 0fa6 05bc
00000070: f0d5 ab3c 1119 4bbc 0c9c 09be da85 5cbc
00000080: 34ad ccbd 1a6a fc3c 474b 9fbd 9bb5 85bd
00000090: d97d 873d df9f abbd 660b d4bd 593a 9fbd
000000a0: 93c8 12bd d225 a2bd 6efb 4abd 4600 d1bc
000000b0: 0638 c0bd c833 34be 89db 8ebd f520 07be
000000c0: 7458 97bd db3a 01bd a450 f4bc 0ab3 96bc
000000d0: c26b d5bd a954 f6bc 93ad f6bd 75f8 24bd
000000e0: 3e0f ae3d fe82 42bd 30e3 e6bc 183a 8c3d
000000f0: d6d1 abbc 78c0 903d 3b03 d139 a68f 0dbd
00000100: 5158 9ebc 638b f6bd 3dec 7ebc cd76 06bd
00000110: 3854 fbbd 5ab2 b5bd bc67 abbd a5cd 11bd
00000120: cc90 a2bc f689 34bd 5f4f e03d 1ac9 f0bd
00000130: f02e 46be 7444 15be 23d5 48be b9f0 87bd
00000140: dd7d 49bd daea e33b ccb7 953b 19e4 e2bb
00000150: 818a db3c 37d3 c6bc d6b4 10be 1881 e7bd
00000160: 2baa 4bbd df75 adbd 9ee8 d13c 40b9 033e
00000170: 5699 833d d039 683d 9dd2 2e3b 33f7 5c3e
00000180: 19b7 613e 21d6 953e b2cb 663e c4b7 803e
00000190: 341c 963c 4366 c9bd ee46 9a3d 5a73 24bd
000001a0: 9742 36bd 2b88 0e3e b23c 8abc 04a6 983d
000001b0: 4aeb 363c 83e9 01be ad2f 763d e4fd 443c
000001c0: 4735 74bd 6c84 0cbd b407 b4bd 4550 8bbd
000001d0: afa7 42be 55d2 c5bd c3fc 72bd 4180 94bd
000001e0: b6ad f9bc 705d f3bd e5b0 3dbe c396 27be
000001f0: cc1c 0fbe 0c9a 92bd 3758 4abc f454 863b
00000200: fcd2 ccbd f492 54bb db17 8a3c c643 6c3d
00000210: 3167 8abc b7ec 373c 9e72 c63a 85e7 413d
00000220: 9666 ae3c 1214 42bc d344 93bc 1eb7 8a3c
00000230: 85c0 203d 5ee3 f23d 9fcd 013e 0c77 0b3c
00000240: c8be d03d 5150 353e bd26 0c3e e634 653e
00000250: 80f4 113e 03df c13d 23c3 443d fc3a c93d
00000260: 20c0 1bbc 420e 3bbd 3450 26bd 1f4e f3bc
00000270: d604 f43b 7ab5 96bd e970 b2bd 9fbd 22be
00000280: df8e 09bd 19ab a03d 8e22 463d 5b10 573d
00000290: cae0 bebd 783c 40bd 2b62 2c3d be36 343c
000002a0: 843b 63bc 58e6 aabc aef2 adbd 8f78 9d3d
000002b0: 6543 c13a eda9 9abd aec9 5b3d e0ce 76bd
000002c0: 88ca 2ebd 1c86 a63c 4c60 98bc ed1a 8c3d
000002d0: 4fc5 3abe 8cf4 7f3e 0c95 f83c a88f 023d
000002e0: f417 9e3d 3f56 2bbe 946d fc3e 0980 28be
000002f0: 4a7c 133e dbf3 df3c 7455 69bd 349f c53e
00000300: 50fb 91be 9589 cb3d de4d 76bd 8706 cabd
00000310: c327 2f3e e375 00bf 42eb 8d3c 1989 cabd
00000320: bda3 e6bd 0414 c2bd 063f 8abd 5ae4 19bd
00000330: ce1d afbc deca 57bd 6618 28bd 58ab 9cbc
00000340: b90b b43d fa8b 76bc 80a0 8abd 9deb 523d
00000350: 2a52 10be f161 1f3c f636 1ebe a2b1 ae3d
00000360: 775c 1f3d 3b86 383d b976 f53d fcb9 3abd
00000370: 21d2 d1bc 9185 5abd 7370 4abd 3617 c7bc
00000380: 59b3 b8bd ee47 3a3d e123 47bc d0b0 313c
00000390: dbf3 843d 6804 d4bd 13e1 f1bc eddc d43c
000003a0: ce6b abbd 6fc8 0c3d 1ff4 89bd cabd b5bd
000003b0: e756 b73c 4a1b 02bd 381b 9b3d aff8 913d
000003c0: 27b5 4f3d 8bb5 873d b0ee a33d 4c0f 4d3c
000003d0: 7571 8f3d 260b 96bd 84f5 c2bd 8134 f4bd
000003e0: 13e5 58bd fb5f e6bd c0ac 903d fd88 53bd
000003f0: f3ac a6bd 9f2e 9fbd 7bfd 0abd a9e5 4a3d

conv2.bias f4 [16]
0.48623303 -0.5822891 -0.2773847 -0.3955599 -0.0090327235 0.45374522 0.009647048 -0.26349127
0.37332195 -0.06672013 -0.0523998 -0.7238805 0.8671083 0.16043301 -0.2647451 -0.046014704
00000000: 89f3 f83e e610 15bf 5e05 8ebe d486 cabe
00000010: fdfd 13bc 4b51 e83e a70e 1e3c 54e8 86be
00000020: 0e24 bf3e 90a4 88bd 2ca1 56bd 3c50 39bf
00000030: cffa 5d3f 8d48 243e ab8c 87be ea79 3cbd

fc1.weight f4 [120, 400]
0.04944738 0.02124822 0.033422995 0.022186046 0.036821235 0.03572646 -0.025903067 0.00333021
0.02706235 0.009384956 0.017974837 0.023128733 0.03836539 0.0023363477 0.0063427696 0.065736756
-0.021124575 -0.05002343 0.051906966 0.03392671 -0.015372786 0.044011004 -0.0071075647 0.011670437
-0.017223394 -0.009851406 -0.053211257 -0.019225184 0.03453099 0.020807508 0.008224332 -0.0034885092
-0.007270621 0.024927791 0.00907991 0.011920188 -0.041437335 -0.00413796 -0.02231244 0.013778709
-0.0024387839 0.011155331 0.007110713 -0.03234323 0.024334848 0.018228518 0.008633887 0.014883403
0.024426641 -0.0075607332 -0.05471725 0.012423145 0.0024396756 0.040714864 0.026314164 0.032554623
0.019442396 0.039221864 -0.022162527 -0.0465463 -0.018103093 0.02960353 -0.0033680617 0.023451762
-0.013080854 0.022094036 -0.0406572 0.020332906 0.053735904 -0.036934964 -0.0278582 0.028106654
0.016837753 -0.024185719 -0.036389463 -0.039184537 -0.037453186 -0.01974649 -0.055641532 0.0010875891
-0.0069481754 -0.03649887 -0.013725002 -0.022143979 -0.025904782 0.009149993 -0.016277822 0.0002516164
0.0036918782 -0.021607256 -0.0069953417 -0.023549182 -0.023849815 -0.057905603 0.041281775 -0.053665143
0.024944086 -0.012560633 -0.010836609 0.046109673 -0.049427208 -0.05285695 0.009606921 -0.051467896
-0.04364012 0.016817328 0.038247574 -0.02180981 0.02133046 -0.0100555755 -0.005470291 -0.001780055
0.026065743 -0.009426143 -0.044249207 0.04105055 -0.025314713 0.02453967 -0.01621629 -0.047289368
0.051301766 -0.017645104 -0.032951284 0.04604789 0.045172356 -0.053354573 -0.011186332 -0.017405512
-0.046029747 0.041488558 -0.017569447 -0.061422117 0.014469552 -0.050795127 -0.017756559 -0.0034260189
-0.03956973 -0.0072806985 0.0042435993 -0.020828143 0.046147566 0.023650631 0.018392812 0.028689561
0.024134435 -0.0024141485 -0.017867407 -0.029585436 -0.042589016 -0.050194234 -0.023006458 -0.038267553
-0.04255932 -0.024980355 0.033292305 -0.024855137 -0.00653594 0.027628243 0.044248663 -0.00859837
-0.040497597 -0.05003028 -0.005354408 -0.049791828 -0.015421109 -0.05168991 -0.009994181 -0.013134307
-0.0031026471 -0.0094258245 -0.049019236 -0.013314718 -0.0097627 -0.0027696567 -0.017992247 0.0276117
-0.021863474 0.01779729 -0.028830662 -0.025238072 -0.032384746 0.003287161 0.02743952 -0.027081398
0.042679694 0.012024488 -0.053233646 -0.001486396 0.01291641 0.04790484 0.015880931 -0.0055093747
-0.013859627 0.0008602262 0.022589838 -0.03142797 -0.038536567 -0.0020929996 -0.051943943 -0.0033674052
-0.030308995 0.04556554 0.025043515 0.0054541104 0.031668365 -0.03268351 0.0155845815 -0.012216338
0.010433276 0.035251502 0.006660069 -0.0015636892 0.040463228 -0.002846772 -0.02019739 -0.035447296
-0.044278678 -0.039556123 0.015144818 0.024083812 0.07672999 -0.045589525 0.008741677 0.056441568
0.00509189 -0.006068008 -0.023561748 -0.051098064 0.016879125 -0.009465992 0.032997414 -0.060606524
-0.022372173 -0.048764694 -0.012092295 -0.021218153 -0.036327004 0.018975446 0.022106245 0.012305189
-0.05408455 -0.02389474 -0.037088107 0.0061321207 0.028254794 -0.038797628 -0.039565794 0.037371438
-0.03402816 0.028379053 0.03631406 -0.05871512 -0.0036407073 0.029719643 0.017208079 -0.021090437
00000000: 5689 4a3d bf10 ae3c 8de6 083d 83bf b53c
00000010: ddd1 163d e955 123d ab32 d4bc a73f 5a3b
00000020: ddb1 dd3c 5cc3 193c f73f 933c 7878 bd3c
00000030: 0725 1d3d 691d 193b 02d7 cf3b fea0 863d
00000040: 720d adbc 5ee5 4cbd 669c 543d bcf6 0a3d
00000050: 23de 7bbc e244 343d 93e6 e8bb 5c35 3f3c
00000060: 1318 8dbc cb67 21bc 0cf4 59bd 227e 9dbc
00000070: 5e70 0d3d 8274 aa3c 59bf 063c 799f 64bb
00000080: 643e eebb 5e35 cc3c e7c3 143c e44c 433c
00000090: 32ba 29bd b997 87bb 94c8 b6bc 18c0 613c
000000a0: 01d4 1fbb d9c4 363c fc00 e93b 567a 04bd
000000b0: e059 c73c f953 953c 2675 0d3c 84d9 733c
000000c0: 611a c83c 07c0 f7bb 321f 60bd 728a 4b3c
000000d0: f7e2 1f3b a1c4 263d cd90 d73c ff57 053d
000000e0: a945 9f3c 1ba7 203d 308e b5bc 55a7 3ebd
000000f0: f04c 94bc 1a83 f23c b3ba 5cbb e91d c03c
00000100: 1451 56bc 8dfe b43c 2a88 26bd 3291 a63c
00000110: 2e1a 5c3d 1e49 17bd e136 e4bc ed3f e63c
00000120: 54ef 893c 2121 c6bc 1e0d 15bd f77f 20bd
00000130: 8368 19bd 64c3 a1bc 60e8 63bd 6f8d 8e3a
00000140: 85ad e3bb d77f 15bd d5de 60bc 4a67 b5bc
00000150: 4436 d4bc dae9 153c 1159 85bc 62eb 8339
00000160: 70f3 713b b301 b1bc 2e39 e5bb 37ea c0bc
00000170: b060 c3bc 6d2e 6dbd 1417 293d fbcf 5bbd
00000180: 8a57 cc3c 1dcb 4dbc 088c 31bc 7fdd 3c3d
00000190: 2f74 4abd 8780 58bd 5966 1d3c 00d0 52bd
000001a0: fcbf 32bd 7ec4 893c 7da9 1c3d 7daa b2bc
000001b0: 38bd ae3c 24c0 24bc 2040 b3bb bc50 e9ba
000001c0: d387 d53c 1c70 1abc a83e 35bd 9f24 283d
000001d0: cd60 cfbc 6b07 c93c 06d8 84bc 7fb2 41bd
000001e0: cd21 523d 778c 90bc edf7 06bd b69c 3c3d
000001f0: a606 393d 538a 5abd e146 37bc 0196 8ebc
00000200: b089 3cbd e8ef 293d cded 8fbc c295 7bbd
00000210: b311 6d3c 8d0e 50bd 3476 91bc 0f87 60bb
00000220: df13 22bd ed92 eebb e40d 8b3b c89f aabc
00000230: 3b05 3d3d f8be c13c 86ac 963c 5f06 eb3c
00000240: 94b5 c53c b136 1ebb ab5e 92bc 285d f2bc
00000250: d271 2ebd 7898 4dbd 0a78 bcbc 70be 1cbd
00000260: ae52 2ebd 9aa3 ccbc 835d 083d 009d cbbc
00000270: 702b d6bb a054 e23c 163e 353d 2de0 0cbc
00000280: cfe0 25bd 8dec 4cbd 0874 afbb 84f2 4bbd
00000290: d2a8 7cbc cdb8 53bd a2be 23bc 4731 57bc
000002a0: c855 4bbb c66e 1abc 65c8 48bd fa25 5abc
000002b0: bbf3 1fbc 2183 35bb 7a64 93bc ef31 e23c
000002c0: 071b b3bc 9fcb 913c 482e ecbc 13c0 cebc
000002d0: dea5 04bd 696d 573b d8c8 e03c cfd9 ddbc
000002e0: e7d0 2e3d 5c02 453c 860b 5abd 2cd3 c2ba
000002f0: 5a9f 533c de37 443d ba18 823c fc87 b4bb
00000300: 7d13 63bc ce80 613a 530e b93c 9dba 00bd
00000310: 85d8 1dbd b52a 09bb 2cc3 54bd afaf 5cbb
00000320: 924a f8bc efa2 3a3d 0f28 cd3c 65b8 b23b
00000330: b0b6 013d 25df 05bd 7956 7f3c 0927 48bc
00000340: 55f0 2a3c e163 103d b53c da3b b4f4 ccba
00000350: c5bc 253d e990 3abb ff74 a5bc 2f31 11bd
00000360: 8f5d 35bd 9a05 22bd f921 783c 6a4b c53c
00000370: 9d24 9d3d 15bc 3abd 4039 0f3c 462f 673d
00000380: dfd9 a63b 24d6 c6bb 9104 c1bc 344c 51bd
00000390: 1746 8a3c 4017 1bbc 4c28 073d 8c3e 78bd
000003a0: d945 b7bc 7dbd 47bd c31e 46bc b1d1 adbc
000003b0: a0cb 14bd 6572 9b3c 2818 b53c b49b 493c
000003c0: c387 5dbd e7be c3bc b3e9 17bd f5ef c83b
000003d0: 9976 e73c 43ea 1ebd be0f 22bd cb12 193d
000003e0: 1d61 0bbd 307b e83c 0dbe 143d 447f 70bd
000003f0: ef98 6ebb 9c76 f33c f5f7 8c3c dac5 acbc

fc1.bias f4 [120]
0.010678197 -0.011757037 0.038878486 0.10932031 0.10601168 0.13372383 0.034313813 0.012033095
0.017271152 0.20613681 -0.031710256 -0.02858922 0.018035272 0.06460884 0.09254653 0.2504828
-0.022619933 -0.0026791473 0.00075338664 0.13089333 0.05248253 0.10474545 0.00451118 -0.11204601
0.040128104 -0.046180524 0.022440633 -0.16739503 0.022257155 0.09668255 0.052077133 0.019626696
0.119254075 -0.03976256 0.03007251 0.045964014 0.027676126 0.038714886 -0.18755081 -0.012475605
0.021873377 -0.034528624 -0.04131021 0.03498775 -0.056793153 0.14789104 0.035453193 -0.068690434
-0.02649142 0.089343354 -0.14026473 -0.002278922 -0.08682708 0.02947038 0.17685781 0.19823362
0.026425343 -0.06144148 0.03771371 -0.0833095 0.08901098 0.10782834 0.02385113 -0.08831107
0.02413358 0.05924369 0.01718951 0.08911089 0.064845346 -0.07210175 -0.040341087 0.115535036
-0.047529563 0.10816482 -0.12606873 -0.008650321 0.124310486 0.17082751 0.0046527544 0.06737862
-0.14211105 0.011311244 0.018934896 -0.081545934 0.104839794 -0.018642778 -0.047228433 0.10367499
-0.034294046 0.22612508 -0.140836 0.09772896 0.048487116 -0.031626254 -0.1098494 -0.03122945
0.033037968 0.04357297 -0.029022833 0.035119887 0.24656798 -0.03511049 -5.1608105e-05 -0.025989434
0.036134638 0.0238752 -0.038035505 0.044531737 -0.049519476 0.101780616 0.032867968 0.13232403
0.035552718 0.07757759 0.06675884 -0.07536047 0.004761075 0.023337843 0.03173194 0.040564884
00000000: 9bf3 2e3c 96a0 40bc 0c3f 1f3d 54e3 df3d
00000010: a71c d93d e6ee 083e a48c 0c3d 7526 453c
00000020: 3b7c 8d3c 8715 533e 9de2 01bd f133 eabc
00000030: b5be 933c a451 843d 0989 bd3d 483f 803e
00000040: 704d b9bc a294 2fbb ec7e 453a e708 063e
00000050: ecf7 563d c884 d63d 85d2 933b 6178 e5bd
00000060: 5e5d 243d ca27 3dbd 6bd5 b73c 9a69 2bbe
00000070: a354 b63c 8001 c63d d54e 553d 2ac8 a03c
00000080: 7b3b f43d 11de 22bd a05a f63c c344 3c3d
00000090: 0bb9 e23c 8093 1e3d 520d 40be 7b66 4cbc
000000a0: cc2f b33c e36d 0dbd e534 29bd 514f 0f3d
000000b0: f09f 68bd c070 173e 5e37 113d 92ad 8cbd
000000c0: 8904 d9bc a6f9 b63d 8fa1 0fbe f759 15bb
000000d0: 65d2 b1bd de6b f13c 371a 353e c1fd 4a3e
000000e0: f679 d83c 10aa 7bbd b179 1a3d 2c9e aabd
000000f0: 644b b63d 1bd5 dc3d 7263 c33c 6fdc b4bd
00000100: c9b3 c53c 83a9 723d 04d1 8c3c c57f b63d
00000110: a3cd 843d 15aa 93bd b23c 25bd a29d ec3d
00000120: 5cae 42bd 8485 dd3d 2918 01be 13ba 0dbc
00000130: 7f96 fe3d 68ed 2e3e 2276 983b cdfd 893d
00000140: 8f85 11be cc52 393c 5b1d 9b3c 8e01 a7bd
00000150: 3fb6 d63d bdb8 98bc 9a72 41bd 8e53 d43d
00000160: ea77 0cbd 558d 673e 5037 10be 1f26 c83d
00000170: 6d9a 463d 888a 01bd b9f8 e0bd e7d4 ffbc
00000180: d252 073d 9279 323d 4bc1 edbc dfd9 0f3d
00000190: 517c 7c3e 04d0 0fbd c875 58b8 cbe7 d4bc
000001a0: ea01 143d ec95 c33c 1ecb 1bbd e966 363d
000001b0: efd4 4abd 5b72 d03d 90a0 063d f37f 073e
000001c0: ba9f 113d 00e1 9e3d dcb8 883d 9756 9abd
000001d0: cb02 9c3b 012f bf3c 5af9 013d 5d27 263d

fc2.weight f4 [84, 120]
0.013434923 0.005438931 0.052018322 0.11651905 -0.12814337 0.11761121 0.12210972 -0.03138932
0.0142619675 -0.11400758 -0.0019558293 -0.072829686 0.07127531 0.066189595 0.051673815 0.09657271
-0.0013890031 -0.07056161 -0.039518133 0.084930554 -0.01656407 0.048338674 0.0662956 0.037808456
0.06891278 -0.11202193 -0.06753337 -0.114166826 -0.09056822 -0.020131024 0.0438214 -0.09166958
0.07345618 -0.029857023 -0.048606306 -0.07672445 -0.11223996 -0.06442117 0.113054514 0.089234084
-0.08832563 -0.06296958 0.121048965 0.01448483 -0.018813884 0.016118437 -0.09891845 0.012725314
0.058015294 0.021603223 -0.05783959 -0.027350795 -0.054263283 0.09781012 0.0024427588 0.03679241
-0.1188506 -0.1407221 0.09623051 0.013071299 -0.041786253 -0.06113813 -0.028002053 -0.044248823
0.079143405 -0.0007839121 -0.06158307 -0.06317462 -0.058481086 -0.11053875 -0.059012476 0.075053394
-0.06784556 0.12905404 0.12284708 0.028513724 0.023037707 0.10798146 -0.058797114 -0.03767217
-0.0020570317 -0.08398165 0.06995621 -0.023111895 0.092597686 -0.08018935 -0.019458566 0.04280884
0.046772704 -0.17793168 -0.10719127 0.08956845 -0.027823498 0.051997803 -0.086072564 -0.09169946
0.04339588 -0.025912337 0.0325866 0.04077901 0.08046099 -0.06939954 -0.07145833 -0.048212666
-0.017528918 -0.05194522 -0.09109145 0.04642555 -0.04436409 0.071188316 -0.09304557 0.07557349
0.09595972 -0.017947288 0.046196233 0.06513435 -0.047857035 0.016108477 -0.018225066 0.06956387
0.061056357 0.022557845 -0.07725592 -0.036645267 -0.03838663 0.010012436 -0.12141618 -0.10051962
0.024081478 -0.059980746 -0.10440315 0.060650233 0.018407952 0.04510128 -0.04317093 -0.034570932
0.011956512 0.00069190474 0.038431317 0.034692913 0.029720386 -0.0787955 -0.07148882 0.073022984
0.023285374 0.04024044 -0.08510884 -0.009780134 0.034182437 0.013567916 0.09525585 -0.054561652
-0.073406234 -0.08371589 0.066817775 -0.047444966 -0.009270278 -0.023573896 0.08893631 0.07746397
-0.02935119 -0.07464284 -0.03876642 0.01082011 -0.06811307 -0.069755785 -0.026172671 -0.0062997183
-0.059128534 -0.022408627 -0.09848949 0.031775612 -0.019228105 -0.01881038 0.09217108 -0.018531574
0.09569757 0.13302302 0.08639291 -0.036256496 -0.059053946 0.0018342797 -0.04401624 0.06303865
-0.025042903 0.026523419 0.07201234 -0.0039874 0.037042778 -0.04177253 -0.097369984 -0.08570313
-0.038558256 0.07544259 -0.003771504 -0.07387966 -0.02031007 0.020564014 -0.035260953 0.03493141
0.0107196 0.0295852 0.08801096 0.014609631 0.018428568 0.072504 0.047331527 0.019133873
-0.05985278 -0.08791977 -0.029123556 0.057238325 -0.11414154 -0.06278864 0.0054696254 0.08380456
-0.0024729266 -0.04334126 0.0020029326 0.011254459 0.030186284 -0.0043229596 0.0567314 0.035321653
0.055979088 0.059591234 0.037869673 0.007802033 -0.074640736 -0.05875562 0.005161575 0.11409599
0.07196016 -0.12642767 -0.12427122 -0.0041183475 -0.07184918 0.011482818 0.06696594 -0.07473772
0.055413757 -0.055884413 -0.043819714 0.06210182 0.031397387 0.038828004 0.07473318 -0.0046147336
-0.0692428 -0.0104052 0.072292924 0.07962637 0.08888005 0.039789457 0.06063896 0.17329167
00000000: 271e 5c3c 0f39 b23b 2a11 553d 8aa1 ee3d
00000010: 0438 03be 25de f03d a914 fa3d 1692 00bd
00000020: 07ab 693c ce7c e9bd 5f2d 00bb bb27 95bd
00000030: caf8 913d 698e 873d eca7 533d eac7 c53d
00000040: 360f b6ba 9b82 90bd c4dd 21bd 12f0 ad3d
00000050: 5fb1 87bc c6fe 453d fdc5 873d 0add 1a3d
00000060: 2522 8d3d c16b e5bd ef4e 8abd 4cd0 e9bd
00000070: d57b b9bd d1e9 a4bc 117e 333d 43bd bbbd
00000080: 3270 963d b796 f4bc 6817 47bd b521 9dbd
00000090: 10de e5bd 3fef 83bd 2089 e73d 5cc0 b63d
000000a0: 11e4 b4bd 32f6 80bd 85e8 f73d c851 6d3c
000000b0: 931f 9abc d00a 843c c295 cabd d67d 503c
000000c0: 72a1 6d3d 3ef9 b03c 35e9 6cbd c60e e0bc
000000d0: 2d43 5ebd ac50 c83d b116 203b a3b3 163d
000000e0: f267 f3bd 7419 10be 8014 c53d 0029 563c
000000f0: 1028 2bbd fa6b 7abd 9064 e5bc 413e 35bd
00000100: f015 a23d 737f 4dba 873e 7cbd b261 81bd
00000110: dd89 6fbd 2462 e2bd 11b7 71bd 98b5 993d
00000120: 9df2 8abd be26 043e 4097 fb3d 9d95 e93c
00000130: 93b9 bc3c 6225 dd3d 3ed5 70bd 224e 1abd
00000140: 44cf 06bb 92fe abbd 3445 8f3d 2855 bdbc
00000150: dba3 bd3d 503a a4bd 9267 9fbc 5258 2f3d
00000160: bc94 3f3d b933 36be 1987 dbbd aa6f b73d
00000170: 1bee e3bc a6fb 543d d046 b0bd edcc bbbd
00000180: e1bf 313d 1c46 d4bc 8779 053d e407 273d
00000190: bbc8 a43d 5921 8ebd bf58 92bd a57a 45bd
000001a0: ce98 8fbc 83c4 54bd 278e babd b828 3e3d
000001b0: 1fb7 35bd 2ecb 913d ad8e bebd 46c6 9a3d
000001c0: 8886 c43d 3106 93bc 4338 3d3d 2865 853d
000001d0: bd05 44bd edf5 833c bc4c 95bc 8177 8e3d
000001e0: 3b16 7a3d 3bcb b83c 5a38 9ebd 5919 16bd
000001f0: 4d3b 1dbd 330b 243c 0ca9 f8bd 3bdd cdbd
00000200: 8546 c53c 5fae 75bd 52d1 d5bd 616c 783d
00000210: 46cc 963c 1fbc 383d 00d4 30bd 409a 0dbd
00000220: 3fe5 433c f160 353a 286a 1d3d 281a 0e3d
00000230: 2b78 f33c 895f a1bd bb68 92bd 138d 953d
00000240: f8c0 be3c 29d3 243d 8b4d aebd db3c 20bc
00000250: e202 0c3d f74b 5e3c 8015 c33d 0a7c 5fbd
00000260: 0256 96bd 3d73 abbd c2d7 883d a755 42bd
00000270: 5de2 17bc 0b1e c1bc 3d24 b63d 6ea5 9e3d
00000280: e871 f0bc 58de 98bd 8ac9 1ebd d546 313c
00000290: de7e 8bbd 1fdc 8ebd 1268 d6bc de6d cebb
000002a0: c330 72bd 4c92 b7bc dcb4 c9bd 2527 023d
000002b0: 4284 9dbc 3a18 9abc 31c4 bc3d 87cf 97bc
000002c0: 16fd c33d 3037 083e c4ee b03d b181 14bd
000002d0: 8de2 71bd 376c f03a 5f4a 34bd 681a 813d
000002e0: c626 cdbc a447 d93c 357b 933d bca8 82bb
000002f0: 2bba 173d ac19 2bbd ea69 c7bd 1f85 afbd
00000300: 43ef 1dbd a581 9a3d 562b 77bb 384e 97bd
00000310: 4e61 a6bc dd75 a83c ca6d 10bd 3d14 0f3d
00000320: 43a1 2f3c a95c f23c 173f b43d 3c5d 6f3c
00000330: 82f7 963c fa7c 943d b4de 413d a4be 9c3c
00000340: 3028 75bd 480f b4bd 8694 eebc bc72 6a3d
00000350: 0ac3 e9bd 5597 80bd 8b3a b33b baa1 ab3d
00000360: d310 22bb 9b86 31bd a243 033b 9f64 383c
00000370: 3a49 f73c 9da7 8dbb 2f5f 683d 70ad 103d
00000380: 544a 653d f015 743d 3b1d 1b3d 32a8 ff3b
00000390: 3edd 98bd bca9 70bd 6e22 a93b 29ab e93d
000003a0: d95f 933d 4176 01be e981 febd 34f3 86bb
000003b0: aa25 93bd 6e22 3c3c 7025 893d 1710 99bd
000003c0: 89f9 623d 0ee7 64bd 4d7c 33bd 7a5e 7e3d
000003d0: 8c9a 003d 1d0a 1f3d b60d 993d 3137 97bb
000003e0: 2bcf 8dbd 927a 2abc 500e 943d 2613 a33d
000003f0: be06 b63d 45fa 223d 8f60 783d 5f73 313e

fc2.bias f4 [84]
-0.016166437 0.015165142 0.27630097 -0.09347116 0.22267377 0.013963809 -0.07655456 -0.06795238
0.3317846 -0.014366032 -0.010225025 0.11914821 -0.010787816 0.1609751 0.008490704 0.20229524
-0.009078176 0.07713251 0.018585853 0.14714178 -0.033404995 -0.11199818 0.06276645 0.10009774
-0.13986346 0.037493154 -0.08047366 0.10023955 -0.0377885 0.18302613 -0.115718044 0.16919535
0.12369305 -0.08950476 -0.0735816 -0.047302235 0.06547657 -0.038805526 -0.08440236 0.079255976
0.22063375 -0.0077720177 0.037733212 0.08400443 -0.06406087 -0.0759584 -0.0378888 0.19418187
-0.05848488 0.12886177 0.10884434 -0.04718748 0.068563715 0.06618891 -0.05734415 -0.12070008
-0.0051928414 0.1071911 0.101126924 -0.07331442 0.1211644 0.066321306 0.039790243 0.2555363
-0.014965856 0.026207903 -0.030881753 -0.034150206 0.054585315 0.3569797 0.047615565 0.1049773
0.41098225 -0.084542945 -0.024864322 0.078975484 0.13601175 -0.05721811 0.06335242 0.019945381
-0.004532766 -0.034951087 0.051514097 -0.013084298
00000000: 7a6f 84bc 3777 783c 5277 8d3e cf6d bfbd
00000010: 9804 643e 76c8 643c a3c8 9cbd 9e2a 8bbd
00000020: acdf a93e 815f 6bbc dd86 27bc fa03 f43d
00000030: 61bf 30bc a8d6 243e 981c 0b3c 7c26 4f3e
00000040: a1bc 14bc a6f7 9d3d 5c41 983c 56ac 163e
00000050: add3 08bd 4d5f e5bd b28b 803d 0b00 cd3d
00000060: 5e38 0fbe 6c92 193d 60cf a4bd 654a cd3d
00000070: 1dc8 1abd 346b 3b3e 95fd ecbd 8c41 2d3e
00000080: c852 fd3d 464e b7bd f3b1 96bd fdbf 41bd
00000090: 9418 863d 8bf2 1ebd 25db acbd f550 a23d
000000a0: d0ed 613e 69ac febb 248e 1a3d 840a ac3d
000000b0: 5832 83bd 1490 9bbd 4931 1bbd 9dd7 463e
000000c0: d78d 6fbd 57f4 033e c8e9 de3d a947 41bd
000000d0: 226b 8c3d 0d8e 873d b3e1 6abd 9b31 f7bd
000000e0: b628 aabb 0287 db3d a21b cf3d df25 96bd
000000f0: 0a25 f83d 77d3 873d 18fb 223d a7d5 823e
00000100: 5a33 75bc f5b1 d63c bbfb fcbc 16e1 0bbd
00000110: da94 5f3d 0bc6 b63e 8a08 433d 57fe d63d
00000120: 446c d23e da24 adbd 43b0 cbbc e6bd a13d
00000130: aa46 0b3e 895d 6abd eabe 813d 7f64 a33c
00000140: 9987 94bb df28 0fbd 7200 533d 865f 56bc

fc3.weight f4 [10, 84]
0.1934281 0.037404343 0.052839085 -0.017665412 0.33936357 -0.10313957 -0.069417715 -0.096985444
0.055137187 0.18677546 0.09739613 0.12696818 -0.062812895 0.010457823 0.06396671 0.08638855
0.053782526 -0.0068487828 0.007013108 -0.052590527 -0.12711808 0.087350115 0.05840538 -0.14646755
0.083959065 0.109336816 -0.16262028 0.16212204 0.15299948 -0.17897546 -0.029998718 -0.26437247
0.030884909 -0.097897984 0.015938958 0.21582562 -0.18034546 0.07229346 -0.10532851 0.046259042
-0.0025014402 -0.02162894 -0.102564335 0.38676715 0.065877065 -0.09573566 0.008848559 -0.0090986425
0.13651124 -0.26649114 0.10688537 -0.07136344 -0.1496675 -0.07297045 0.027398223 0.12843733
-0.097056 0.12501554 -0.17595623 -0.057701256 0.15792195 0.25519824 -0.018094055 0.017643604
0.05900082 0.14005773 0.019664336 -0.009276922 -0.20880423 0.20876402 0.018040972 0.1350443
-0.2974476 -0.0063862554 0.023578996 0.0923531 -0.0646729 -0.003912882 0.04164272 -0.1711752
-0.12228037 0.0524854 0.22144791 0.038702384 0.12205269 -0.18008272 -0.27356616 0.042343497
-0.21828087 -0.026163723 0.050763328 0.078880705 -0.2148305 0.1472804 -0.063576125 -0.015552834
0.10277624 0.07546874 0.06774428 -0.03963119 -0.024181843 -0.008168365 -0.20876288 -0.30310783
0.251425 0.25122008 0.06317325 0.06272716 -0.10075898 -0.017807828 -0.002568096 0.1680779
0.05004193 0.13695489 0.08116142 -0.088580824 -0.1877693 -0.0032948256 -0.038230505 0.4058135
0.053955335 0.06360869 0.077122666 -0.017166005 -0.20261472 0.07496922 -0.13700028 0.08776717
0.08535828 0.26572955 0.095758274 0.18670797 -0.0038482025 -0.16135173 -0.04391314 0.10243906
-0.250501 -0.05925584 -0.055249095 -0.026548723 0.15479703 0.032921392 -0.35363233 0.21922824
0.19289452 -0.005808549 0.054105535 -0.04418601 -0.01834173 0.07089434 -0.008688339 -0.0078037647
0.15168504 -0.20273812 0.19849652 0.21287665 -0.24078931 0.04195934 -0.101619706 -0.21752244
-0.05528568 0.021013863 -0.07404792 -0.1820257 0.029262654 -0.05074472 -0.11210456 0.10107836
-0.024016025 -0.04588489 0.17168817 -0.066240296 0.122137286 0.02270195 0.06768977 0.029727219
0.20141146 0.19440679 -0.0043856427 0.01660933 0.06531981 -0.12458534 0.056066453 -0.15270968
0.06556153 0.26928607 0.081037946 0.116831146 -0.03557179 -0.18162705 -0.13806717 0.055232808
0.07834644 -0.008006566 -0.12281953 -0.09303777 -0.06171914 -0.0048404275 -0.066908225 0.048266225
-0.15569595 0.070156924 0.08480244 -0.039882377 0.31300136 0.06470994 0.035345957 -0.039566305
0.20413046 -0.023223413 -0.12120277 0.14562416 -0.08247766 -0.11855992 0.009945522 -0.09088368
-0.22580904 -0.06237839 0.14528494 -0.16704433 0.3386128 0.027309034 0.00744989 -0.16666184
0.038269892 0.048065145 0.13813698 -0.13059 -0.20498525 0.07357194 -0.07529835 0.104989186
0.0599971 0.26575127 -0.05191858 0.19407399 -0.0055052927 0.04787266 -0.16401972 -0.168305
0.12235687 -0.06926605 0.07979194 0.10932701 -0.05180094 -0.01919871 -0.015306833 -0.11081144
0.19838877 0.114670366 -0.042982586 -0.033591297 -0.11625379 -0.05322377 0.06498534 0.021341406
00000000: 0412 463e 4c35 193d cc6d 583d 0eb7 90bc
00000010: 10c1 ad3e d73a d3bd e02a 8ebd 4ea0 c6bd
00000020: 88d7 613d 1142 3f3e 9f77 c73d f203 023e
00000030: 0ca4 80bd 4a57 2b3c fa00 833d 7bec b03d
00000040: 114b 5c3d c16b e0bb 37ce e53b 2a69 57bd
00000050: 3e2b 02be 9ee4 b23d 7b3a 6f3d 97fb 15be
00000060: bbf2 ab3d fbeb df3d ee85 26be 5203 263e
00000070: e5ab 1c3e 5845 37be dfbf f5bc d45b 87be
00000080: 5902 fd3c bd7e c8bd 6b92 823c 6401 5d3e
00000090: 7bac 38be 980e 943d 79b6 d7bd 1f7a 3d3d
000000a0: 34ef 23bb 2d2f b1bc 400d d2bd 5806 c63e
000000b0: 8eea 863d 0f11 c4bd 8cf9 103c 7912 15bc
000000c0: 9ac9 0b3e 8771 88be b8e6 da3d ff26 92bd
000000d0: 7042 19be 8871 95bd 3d72 e03c 1385 033e
000000e0: 4cc5 c6bd 1304 003e df2d 34be 2758 6cbd
000000f0: 4bb6 213e 58a9 823e fc39 94bc 5289 903c
00000100: d8aa 713d 4b6b 0f3e 1a17 a13c 3bfe 17bc
00000110: c7d0 55be 3cc6 553e a9ca 933c 0e49 0a3e
00000120: 0d4b 98be cb43 d1bb bd28 c13c 9f23 bd3d
00000130: 3a73 84bd a237 80bb 8f91 2a3d 8d48 2fbe
00000140: 216e fabd eefa 563d 3ec3 623e 6486 1e3d
00000150: c3f6 f93d 9b67 38be dd10 8cbe 6070 2d3d
00000160: 0585 5fbe 4e55 d6bc 35ed 4f3d 358c a13d
00000170: 87fc 5bbe acd0 163e 3334 82bd 50d1 7ebc
00000180: 597c d23d 5b8f 9a3d 83bd 8a3d 5154 22bd
00000190: 0019 c6bc 9bd4 05bc f0c5 55be f330 9bbe
000001a0: c7ba 803e eb9f 803e fa60 813d 1977 803d
000001b0: b95a cebd b9e1 91bc 804d 28bb 9d1c 2c3e
000001c0: c4f8 4c3d e73d 0c3e f537 a63d dd69 b5bd
000001d0: 9846 40be 00ee 57bb 9797 1cbd c9c6 cf3e
000001e0: 4500 5d3d 4645 823d 7df2 9d3d b99f 8cbc
000001f0: 3c7a 4fbe 7689 993d cd49 0cbe 46bf b33d
00000200: 52d0 ae3d b40d 883e ea1c c43d 6030 3f3e
00000210: 2032 7cbb 6339 25be 44de 33bd 92cb d13d
00000220: ab41 80be 40b6 72bd e04c 62bd b57c d9bc
00000230: 1d83 1e3e 95d8 063d 4c0f b5be 5e7d 603e
00000240: 2486 453e a455 bebb c49d 5d3d 64fc 34bd
00000250: 6541 96bc 0d31 913d 8959 0ebc b9b6 ffbb
00000260: 5353 1b3e 959a 4fbe ac42 4b3e 56fc 593e
00000270: 7991 76be 8fdd 2b3d fe1d d0bd 34be 5ebe
00000280: 3d73 62bd 4425 ac3c 70a6 97bd f264 3abe
00000290: 3cb8 ef3c b2d9 4fbd 1397 e5bd 2c02 cf3d
000002a0: 41bd c4bc cbf1 3bbd 06cf 2f3e fea8 87bd
000002b0: 1d23 fa3d 71f9 b93c efa0 8a3d 7f86 f33c
000002c0: ce3e 4e3e 9312 473e 70b5 8fbb 4a10 883c
000002d0: 64c6 853d 9926 ffbd f0a5 653d ed5f 1cbe
000002e0: 2045 863d dddf 893e 39f7 a53d 2b45 ef3d
000002f0: bab3 11bd 71fc 39be 7b61 0dbe cc3b 623d
00000300: 1974 a03d f92d 03bc ce88 fbbd 968a bebd
00000310: 35cd 7cbd 739c 9ebb 2e07 89bd ceb2 453d
00000320: c26e 1fbe 6fae 8f3d e7ac ad3d b45b 23bd
00000330: b741 a03e a586 843d ecc6 103d 4710 22bd
00000340: 9307 513e 073f bebc 2839 f8bd 801e 153e
00000350: 0cea a8bd 8bcf f2bd 8bf2 223c 3921 babd
00000360: 7c3a 67be 7c80 7fbd 93c5 143e ab0d 2bbe
00000370: a85e ad3e 32b7 df3c 351e f43b 67a9 2abe
00000380: e4c0 1c3d f5df 443d c873 0d3e 63b9 05be
00000390: a7e7 51be e3ac 963d 0536 9abd 9204 d73d
000003a0: 85bf 753d 8d10 883e 94a8 54bd 55bb 463e
000003b0: be65 b4bb 1f16 443d c9f4 27be 2558 2cbe
000003c0: 3d96 fa3d 5cdb 8dbd f569 a33d d7e6 df3d
000003d0: 392d 54bd 9d46 9dbc 83c9 7abc 1cf1 e2bd
000003e0: 6d26 4b3e 4cd8 ea3d 820e 30bd 0797 09bd
000003f0: 7816 eebd 2b01 5abd 0917 853d 2cd4 ae3c

fc3.bias f4 [10]
-0.13255903 -0.6067265 0.15611279 0.38587987 0.43998635 -0.1277752 0.07016969 -0.3759564
0.39910042 -0.44041553
00000000: 8ebd 07be 6e52 1bbf 08dc 1f3e 0c92 c53e
00000010: e445 e13e 81d7 02be 20b5 8f3d 5b7d c0be
00000020: e456 cc3e 257e e1be
